Models/ud_srl-pt_xlmr-large/linear_layer.pt (torch_old, 353122 bytes, 2 tensors)

weight f4 [86, 1024]
00000000: c4ab b4bc c3bc 44bc e2dd a83c f747 d4bb
00000010: 11b3 c7ba 99b9 133a 7083 8cba 4e99 2a3c
00000020: 8582 02bc 5644 4abc 27dc 6bbc 025b be3c
00000030: f414 a5bc 3b4e cd3b 09a7 adbc 1570 26bc
00000040: cd0a 073c 9abb e53c 9838 ce3c 5822 0e3b
00000050: 4c50 513c 749b 6b3c cabf bb3c 5bcc 6bba
00000060: d3c4 1c3c fedd 0bbc 4126 80bc 0177 383b
00000070: 22e8 523b ba28 babc d43c afbc 911c b2bc
00000080: 5b0f 453b e33c 663b f7c3 fb3c 81ca 86bb
00000090: 552f 673c b05f 3dbc c3aa 013c dda8 403c
000000a0: 2e11 c9bc 3778 ea3c 4663 eabc 8b8b d13c
000000b0: f9f6 d83c 9675 023d 48f8 8f3c cb7b f23b
000000c0: 1ee5 c3bc 16f6 c63c 6abf bcbb cf23 b9bc
000000d0: dcc2 d9bc ffd3 f63b 3da3 d83c 23c3 ad3c
000000e0: c435 0d3c 67b4 96bc c883 c43c 2314 c1bb
000000f0: 7fc6 dcbc 6933 a13c 1103 24bc a546 9a3c
00000100: 4f47 f7bc e62f 753c 5609 373b e6f2 b4bc
00000110: a23f 703b 6003 01bd b660 a5bc 7ea6 163c
00000120: 0f30 aebb 1f29 efbc 23f0 c7bc 7bbe c7bc
00000130: f76c 963c 559b 1d3c 3610 cfbc 4c60 9c3b
00000140: 04f4 233c fa2a 47bc 2dd7 3d3c a3e8 af3c
00000150: fc80 bf3c 53dc b33c 9295 05bd 202a f03b
00000160: b461 433c 18d7 8b3b 9cb6 313c 0bdb b43c
00000170: 0c2b bebc 77dd 72bc 65ba e43c 5af5 213b
00000180: 925d 893c 1608 fabc d08f b03c f1a7 9e3b
00000190: 08bf 863a cc6d f4bc 53f2 8b3c 5cb2 b03c
000001a0: ee04 893c 8d5f c73c d158 e63b a16d bf3c
000001b0: bab9 e6bc 64cc 8cbc 0ff0 fdbc d2cf 95bc
000001c0: c2b2 d33c d431 5bbc 999d 47bc 76a2 17ba
000001d0: f312 f1bc b4ea 9dbc 5203 03bc 3731 8d3c
000001e0: d140 97bc bbe0 093b 5951 bcbb 1a44 593c
000001f0: 02ab b2bc c063 aa3c 1e29 8cbc 05f5 82bc
00000200: a39d 0abc b473 693b cb5d dcbb 5e3a 2dbc
00000210: 355c 0dbc 4b4a 15bc b884 8cbc 6058 7d3c
00000220: 1d88 dbbc 552f 27ba e0cd 9e3b 017c 2dbb
00000230: 76a3 0abc fb34 4fbc 25bd 053d 7559 983c
00000240: 698c 90bc c3f9 6e3c a565 cabc 1e79 583c
00000250: f714 c0bc 96de b33c 0589 4bbc 595a 95bc
00000260: 6a9a c9bb 517c 113c 6005 b73b 4f02 1bbc
00000270: 77ad 8fbc bb72 b3bc 8b21 6fbc 4bad abbb
00000280: cc96 96ba 6ee1 c23c 0bbb c338 fb9a eebc
00000290: 2f28 98bc e7fb f0bc d01f 853c 26ac e13c
000002a0: fb85 11bc 7b2a 223b 4d91 70bc c391 2abc
000002b0: 5220 8c3c 36a0 4bbc fefa d83a 1c11 613c
000002c0: 7ac0 da3c 413a a1bc 87d9 9b3b e0b7 efbc
000002d0: 438d d9bc 5096 eeb9 bdce 013d 45f7 353c
000002e0: 4931 b0bc b69f 513c 583b 4bbc c68f 2f3c
000002f0: ba1f 93bc 4443 283c d18a cdbc 09d2 eabb
00000300: 6fee 8fbc e278 4f3c f71d e33c f5ac 6c3c
00000310: f70c 77bc 8876 30bc 404f 5cbc 29a9 d53c
00000320: 71b7 6c3c ce88 80bc 47d0 eebc 0f28 523c
00000330: e793 013c 282d 03bc 60a0 1abb f7b7 cb3c
00000340: 5930 3f3c d23d d43c 0424 053c dfb8 f739
00000350: 3d2c 23bc 989e ec3c 6783 c63b 75cc 03bc
00000360: 7ad8 9c3c 3fce 22bc f836 42bc f07f 83ba
00000370: 330c 4bbc d507 b8bc 8f6c 9f3c 4e02 b73c
00000380: ece6 8b3b 8c0e 2f3c baf4 d0bc a406 9fbc
00000390: 65b5 9f3c 2490 a2bc 33f0 eebb 68af 76bb
000003a0: a806 71bc c26e a83b 90c0 30bb d882 753b
000003b0: 2986 87bc cafe 053b 1d78 993c ddf9 893c
000003c0: 59a0 d03b 5344 85bc 19db c2bc 2da0 273c
000003d0: ea11 703c be8f a33c 513a 983a b19d 4ebc
000003e0: 8780 d43c 0712 4abc 42e1 b6bc 6ba5 5c3c
000003f0: 7e91 353c ee2e c6bc e27c 8e3c ae75 503b
-0.02205456 -0.012007895 0.020613614 -0.0064783054 -0.0015235861 0.0005635261 -0.0010720324 0.010412527
-0.007965689 -0.012345394 -0.01439575 0.023236755 -0.020151593 0.0062654293 -0.021197813 -0.010158558
0.008242321 0.028043557 0.02517347 0.002168795 0.012775492 0.014380325 0.0229186 -0.000899499
0.009568411 -0.008536814 -0.01564324 0.0028147104 0.003218182 -0.022724498 -0.02139131 -0.021742137
0.0030068967 0.0035131506 0.030733092 -0.004113496 0.014110406 -0.011558458 0.007914248 0.01175901
-0.024544325 0.028621776 -0.02861179 0.025579235 0.026484953 0.03185042 0.017574444 0.007400011
-0.023912963 0.024287265 -0.005760123 -0.022600083 -0.026582174 0.007532596 0.026445026 0.021211213
0.008618776 -0.01839657 0.02398862 -0.005892293 -0.026950119 0.019677835 -0.010010497 0.018832514
-0.03018537 0.014965033 0.0027929149 -0.02208848 0.0036659022 -0.03149736 -0.020187717 0.009194968
-0.0053157876 -0.029194413 -0.024406498 -0.02438282 0.018362505 0.009619554 -0.025276285 0.0047722217
0.010006908 -0.0121562425 0.011586946 0.021473235 0.023376934 0.021955645 -0.032613344 0.0073292404
0.01192515 0.0042675845 0.01084676 0.022077104 -0.023213886 -0.014823309 0.027920911 0.0024712891
0.01676825 -0.030521434 0.02155295 0.0048417975 0.001028032 -0.029837511 0.017083323 0.021569423
0.016725983 0.024337554 0.0070296307 0.023367705 -0.028164733 -0.017187305 -0.030998258 -0.018287573
0.025842074 -0.013378579 -0.01218357 -0.00057844014 -0.029427981 -0.019276954 -0.007996397 0.017235382
-0.018463524 0.002103849 -0.005747002 0.013260866 -0.021810059 0.020799518 -0.01710945 -0.015985975
-0.008460435 0.0035621943 -0.006725048 -0.010572998 -0.008627941 -0.009111951 -0.017153129 0.015462965
-0.026798302 -0.00063775975 0.0048463196 -0.0026471617 -0.008461824 -0.012646909 0.032651085 0.018597344
-0.017645078 0.014585915 -0.024706671 0.01321247 -0.023447497 0.021956723 -0.012422805 -0.018231558
-0.006152441 0.008879737 0.0055853575 -0.009461 -0.01753877 -0.021905294 -0.0145954 -0.005239164
-0.0011489033 0.023789134 9.333164e-05 -0.029126635 -0.018573849 -0.029416991 0.016250521 0.027547907
-0.008882041 0.0024744559 -0.01468308 -0.010410729 0.017105255 -0.012428334 0.0016554294 0.013736989
0.026703108 -0.019681098 0.004756156 -0.029262483 -0.026556617 -0.0004550689 0.0316913 0.011106317
-0.021507876 0.012794426 -0.012404285 0.010715431 -0.017959464 0.010269944 -0.025090607 -0.0071661514
-0.017569749 0.012663098 0.02772425 0.014445533 -0.015078775 -0.010770448 -0.013446629 0.026081638
0.014448033 -0.015690234 -0.029152049 0.0128269335 0.007908798 -0.008006372 -0.0023594126 0.024867995
0.011669242 0.025908384 0.008126263 0.0004724925 -0.009959278 0.028884217 0.006058145 -0.008044352
0.019146193 -0.009936868 -0.011853926 -0.0010032635 -0.012393045 -0.022464672 0.019460944 0.022339966
0.0042694714 0.010684621 -0.02550732 -0.019412346 0.019495675 -0.019844122 -0.0072918176 -0.0037641171
-0.01471106 0.0051401565 -0.0026970245 0.0037462022 -0.016543465 0.0020446056 0.018734032 0.016842777
0.006366771 -0.016267931 -0.023786115 0.01023106 0.014652709 0.019966003 0.0011614059 -0.012610839
0.025940193 -0.0123334 -0.022324208 0.013467173 0.011082051 -0.0241923 0.017393533 0.0031808424

bias f4 [86]
00000000: 3e23 a9bc 613c a7bc cf4a 743c 3474 dcbc
00000010: cdd2 b53c ac94 abbc c92e 203c 92fb 1d3c
00000020: 7777 393c 47d8 c1ba a200 7cbc 781a d9bb
00000030: 40b1 72bc 0833 ed3a 8618 5e3c 130e 073c
00000040: 0e3d f7bc 6fc7 73bc 31d0 503c aa8e e03c
00000050: de53 08bd 271d 69bc dba4 f7bb e53d b2bc
00000060: 4577 803c 95ff 973c 934e 91bc 696b 95bc
00000070: d2f3 f93b ca5f d5bb 45e8 eebc 36aa d33b
00000080: eca3 ca3c 875f ce3c b581 7f3c 28eb 3f3a
00000090: f31d 8b3c c67e c1bc 77fd f4ba 0877 1ebc
000000a0: 0e29 12bd d5e7 1c3b f8bc 2a3c 4bbd fbbc
000000b0: 2c14 06bd 8fc8 fcbb 417a 3fbc d883 cf3b
000000c0: b4e0 673c e8e4 1a3c f787 a53c 712c f43b
000000d0: ebe6 13bc 4b28 613c da0f fabc ae4d d9bc
000000e0: bc0a 80bc 70d6 1abd a816 caba 8b94 2cbd
000000f0: 4c33 b93b 2254 c2bc 133d 353c e8b5 31bd
00000100: 2760 fcbc 2ec7 963c a4ea aa3b 8af1 88bc
00000110: 25c0 10bd eea6 c1bb bc7b 2cbd c033 0bbd
00000120: f153 583b 56a6 29bd 28f5 d7bb a433 40bd
00000130: b7be 84bb aa61 4abd 546a 81bc 8098 4ebd
00000140: bee2 5dbc 7e85 6cbc 9593 7b3b 4787 75bc
00000150: 6972 41bd 6511 20bd
-0.020646688 -0.020414533 0.014910414 -0.026910879 0.022195244 -0.020944916 0.009776779 0.009642499
0.011319987 -0.0014789187 -0.01538101 -0.00662547 -0.0148127675 0.0018096874 0.0135556515 0.008243102
-0.03018048 -0.014879092 0.012744949 0.027411778 -0.033283107 -0.014228142 -0.007557494 -0.02175803
0.015681872 0.018554488 -0.017737662 -0.018239694 0.0076279426 -0.006511663 -0.02916349 0.0064594997
0.024736367 0.025192035 0.015594889 0.0007321113 0.016982054 -0.02362002 -0.0018691261 -0.009671934
-0.035683684 0.0023941894 0.01042103 -0.03072991 -0.03273408 -0.007714338 -0.011686862 0.0063328557
0.0141526945 0.00945399 0.020206435 0.007451587 -0.009027223 0.013742517 -0.030525137 -0.026526298
-0.015630119 -0.03780216 -0.0015418129 -0.04213385 0.005651867 -0.023721758 0.0110619245 -0.04338637
-0.030807568 0.018405523 0.0052159596 -0.016716737 -0.035339493 -0.005909792 -0.04211019 -0.0339849
0.0033009017 -0.041418396 -0.006590504 -0.04692425 -0.0040510553 -0.049409546 -0.015797772 -0.050438404
-0.013542829 -0.014436124 0.0038387526 -0.014985866 -0.04722825 -0.03907909
