Models/srl-en_xlmr-large/linear_layer.pt (torch_old, 398222 bytes, 2 tensors)

weight f4 [97, 1024]
000000 33 f7 ab bc a3 fd 37 bc 28 e9 b4 3c f8 6f d9 bb
       -0.020991897 -0.011229905 0.022083834 -0.006635662
000010 f2 8d 2c b9 1b 7e 6b bb 62 c6 b3 ba f4 bc 4b 3c
       -0.00016456077 -0.003593332 -0.0013715739 0.012435187
000020 6b 2d d3 bb c8 e5 2a bc 33 bc 62 bc e2 b2 99 3c
       -0.006444623 -0.010430761 -0.0138388155 0.018762056
000030 f9 d8 8e bc 8c c1 00 3c b5 65 8f bc 79 79 a5 bb
       -0.017437445 0.007858645 -0.017504552 -0.005049881
000040 70 35 02 3c da a2 c3 3c b7 3f db 3c f3 7e c8 3a
       0.007947311 0.023881365 0.02676378 0.0015296623
000050 4f 10 14 3c 04 77 33 3c 46 99 b0 3c 3e 7d af bb
       0.009037091 0.0109536685 0.021557461 -0.005355506
000060 68 19 0d 3c 69 b1 07 bc b4 d5 82 bc c0 03 2c 3b
       0.008612014 -0.008282044 -0.015971042 0.0026247352
000070 45 93 78 38 5a 32 a2 bc 38 9a 9e bc eb bf 9f bc
       5.9264963e-05 -0.0197994 -0.019360647 -0.019500693
000080 08 5c e3 3a 26 c9 45 3b f0 d8 f0 3c cd 07 b6 ba
       0.0017346153 0.0030179708 0.029400319 -0.0013887823
000090 39 0b 87 3c 32 26 17 bc 6f b7 82 3b 63 78 23 3c
       0.016484844 -0.009225415 0.003989152 0.009977433
0000a0 f4 8f 9f bc af 27 dc 3c 56 ca cc bc 93 8d aa 3c
       -0.019477822 0.026874391 -0.024998825 0.020819461
0000b0 d2 63 cb 3c 22 ee ee 3c 8e 2b 99 3c a9 5d 6a 3b
       0.024827871 0.029166285 0.018697526 0.0035761392
0000c0 0d de be bc a4 d5 d7 3c b5 31 08 bc 95 1a 95 bc
       -0.023299241 0.026346989 -0.008312632 -0.018201152
0000d0 ae 1f 9e bc 92 45 aa 3b e5 2b d5 3c 83 60 a3 3c
       -0.019302215 0.0051962817 0.026021907 0.019943481
0000e0 f8 89 b4 3b 69 2c 70 bc f5 83 bf 3c a5 e3 49 bb
       0.005509611 -0.014659026 0.023378352 -0.0030805853
0000f0 a9 4e da bc 2d 8b a0 3c fe 48 04 bc fe 64 96 3c
       -0.026648836 0.019597614 -0.008074043 0.018358704
000100 fa 4c f6 bc d9 cd 81 3c 95 9a 6f 3b e0 69 c1 bc
       -0.030066002 0.015845226 0.0036560644 -0.023610055
000110 50 94 22 3a 8e 50 f3 bc 7c 33 94 bc a0 92 d1 3b
       0.000620191 -0.029701497 -0.018090956 0.006395653
000120 c8 32 dd bb e6 7e b9 bc 6d d0 be bc 0a 9f a3 bc
       -0.0067504384 -0.022643518 -0.023292745 -0.019973297
000130 a1 49 a4 3c 06 77 15 3c 85 a8 d3 bc bf 03 b0 3b
       0.02005464 0.009122616 -0.025837192 0.0053715403
000140 8a e3 47 3c 8d 4d 24 bc 56 18 6c 3c ea 3f b2 3c
       0.012200246 -0.010028255 0.014410099 0.021758992
000150 f1 4b 92 3c fa 38 9f 3c c3 4b f0 bc 1d 42 2f 3c
       0.017858477 0.019436348 -0.029333001 0.010696915
000160 24 6d 46 3c 45 36 97 3b bb 9f 1a 3c 7c 50 9b 3c
       0.012110982 0.0046146237 0.009437497 0.018959276
000170 b4 27 b8 bc f3 1c 82 bc fe bd dd 3c 5e 9f 9c 3b
       -0.02247987 -0.015882945 0.027068134 0.0047797402
000180 95 c0 2d 3c f3 3c ac bc 75 c1 88 3c 56 e3 96 3b
       0.010604997 -0.021025157 0.01669381 0.0046047373
000190 eb 59 f7 3a 87 c2 e2 bc 15 08 6b 3c 5d 16 55 3c
       0.0018871402 -0.027680648 0.014345189 0.01300582
0001a0 67 76 87 3c d9 06 c1 3c 2d 34 6d 3a d3 e9 cb 3c
       0.01653595 0.023562836 0.00090486073 0.02489177
0001b0 78 6a e1 bc c3 f2 a1 bc 12 43 ea bc f7 89 80 bc
       -0.027516589 -0.019769078 -0.028596435 -0.015690787
0001c0 ac 07 b7 3c c9 bc 66 bc da 7b 15 bc 04 89 ae 3b
       0.022342525 -0.014083096 -0.009123767 0.005326392
0001d0 d2 3b c2 bc 0d 57 a8 bc 6a a6 16 bc 50 a2 68 3c
       -0.023710165 -0.020549322 -0.00919495 0.014198855
0001e0 c5 23 54 bc 32 bd 1a 39 61 f9 56 bb 12 bc 45 3c
       -0.012947981 0.00014757065 -0.003280245 0.012068765
0001f0 32 bc ad bc fc 90 8e 3c 31 a7 5e bc f1 a0 82 bc
       -0.021207903 0.017403118 -0.013589666 -0.015945883
000200 f6 35 05 bc fa 2d 1a 3b 06 b8 b6 bb 1c cd 78 bc
       -0.008130541 0.002352594 -0.0055761365 -0.015185621
000210 1d 28 14 bc 6c 69 54 bc e7 a6 8e bc 70 18 29 3c
       -0.009042767 -0.012964588 -0.01741357 0.010320768
000220 a8 c5 d1 bc 29 16 87 bb 84 c3 92 3b 2c ff 97 bb
       -0.025606945 -0.0041225147 0.0044788737 -0.004638573
000230 17 f2 00 bc cd f9 76 bc be a0 ee 3c 1b ab 8c 3c
       -0.007870219 -0.015074206 0.029129382 0.017171433
000240 aa 31 66 bc 96 d4 61 3c fb d3 c1 bc 2c 22 31 3c
       -0.014049927 0.013783595 -0.02366065 0.01081137
000250 7a 1f ba bc 46 23 a0 3c 53 72 15 bc 9b da ae bc
       -0.022720087 0.01954807 -0.009121495 -0.021344474
000260 92 88 74 bb 59 26 19 3c af 62 14 3c 26 87 00 bc
       -0.0037312848 0.009347522 0.009056731 -0.007844722
000270 20 cf 4d bc 9d 9f 8e bc 0c b9 93 bc 77 af d6 bb
       -0.0125615895 -0.017410094 -0.018032573 -0.0065516788
000280 20 97 80 bb c0 f4 af 3c 2a 10 8a 3a dc 4d e2 bc
       -0.0039242655 0.02147901 0.0010533382 -0.027625017
000290 78 32 a8 bc 56 d4 e1 bc 30 d5 65 3c 72 7d b2 3c
       -0.020531878 -0.02756707 0.014027879 0.021788333
0002a0 bc ee 71 bc f0 94 a6 b9 ee b3 7d bc 8e 22 1f bc
       -0.014766391 -0.00031772954 -0.015484793 -0.009712828
0002b0 d5 4e 87 3c e6 f3 2c bc 3b 04 7f ba f3 3f 89 3c
       0.016517082 -0.010556197 -0.00097281084 0.016754126
0002c0 20 b5 d5 3c ae 74 a5 bc 3b 8f e3 3b cd 66 e0 bc
       0.026087344 -0.020197239 0.0069445646 -0.02739277
0002d0 c5 af cb bc cd 23 9f ba 6a 2c e4 3c 4f 5f 38 3c
       -0.024864087 -0.0012141407 0.02785321 0.011253192
0002e0 8f bd a2 bc fe c1 48 3c 43 17 72 bc 25 97 d8 3b
       -0.01986578 0.012253283 -0.014776054 0.0066098147
0002f0 54 fb 89 bc d3 d9 31 3c 3a 17 ca bc b0 99 df bb
       -0.016843475 0.010855156 -0.024669278 -0.006823741
000300 76 c5 81 bc b8 1e 3c 3c 61 ee bf 3c ea 11 3a 3c
       -0.015841227 0.011481933 0.023429098 0.01135681
000310 ab 0d 69 bc 5f 66 27 bc 4d f9 3c bc af 73 a6 3c
       -0.01422445 -0.010217278 -0.011534047 0.020318834
000320 3d 06 4e 3c 74 f2 72 bc 88 e5 e9 bc e6 07 20 3c
       0.0125747295 -0.014828313 -0.028551832 0.009767508
000330 d4 37 a0 3b 95 35 1d bc b3 0f 35 ba 76 e5 ad 3c
       0.0048894677 -0.0095952945 -0.00069069414 0.02122758
000340 70 e8 2e 3c 9a e6 b0 3c 13 d3 c0 3b 55 72 1c bb
       0.010675535 0.021594334 0.005884537 -0.0023871858
000350 93 b3 24 bc 7f ed eb 3c 90 fd df 3b 43 d4 33 bc
       -0.010052579 0.02879977 0.006835647 -0.0109759
000360 35 a7 92 3c 65 52 3a bc 2e ed 1a bc 8d 38 94 ba
       0.017901996 -0.011372183 -0.009455962 -0.0011308357
000370 d0 df 4b bc 8c 93 b0 bc 33 19 81 3c 3a 6d 8f 3c
       -0.012443498 -0.02155473 0.015759086 0.017508138
000380 cd b1 41 3b 0a e1 38 3c 4c c8 cc bc 28 58 8d bc
       0.002955544 0.011284122 -0.024997853 -0.01725395
000390 85 2c 96 3c a6 bb a6 bc 53 ce f2 bb 4c 75 05 bb
       0.018331775 -0.02035315 -0.0074098497 -0.0020364104
0003a0 80 a7 5e bc 2f 20 99 3b 4a 9e 8a bb e3 25 c5 3a
       -0.01358974 0.004673026 -0.0042302953 0.0015041198
0003b0 78 be 84 bc 06 38 8a 3b 4d c5 93 3c 98 f0 8a 3c
       -0.016204104 0.0042181043 0.018038416 0.016960427
0003c0 9a 5b 96 3b 4d eb 86 bc 00 e5 b0 bc 40 4d 20 3c
       0.0045885565 -0.016469622 -0.02159357 0.009784043
0003d0 48 81 6e 3c 58 46 87 3c d6 55 08 bb bb 79 38 bc
       0.01455719 0.016513035 -0.0020803115 -0.011259492
0003e0 67 da a8 3c 4e 4c d0 bb b2 09 ad bc 5b a3 60 3c
       0.020611955 -0.0063567525 -0.021122787 0.013710822
0003f0 38 c2 77 3c 19 b3 c7 bc 07 0b 98 3c 38 5b 7b 3a
       0.015121989 -0.024377393 0.018559946 0.0009588483

bias f4 [97]
000000 ec 88 18 3d d8 50 6f bb 06 e9 2a 3c 74 e4 07 3c
       0.037239954 -0.0036516692 0.010431534 0.008294214
000010 0a 5c fd 3a c9 4b e2 bb 58 bf 2d bd 63 2c c2 3c
       0.0019329798 -0.006906007 -0.042418808 0.023702806
000020 47 d0 a9 bc b3 88 a8 3c 81 ea 01 bc 5b 82 fb bc
       -0.020729197 0.020572996 -0.007929445 -0.030701807
000030 99 62 0c ba 98 f1 f6 3c 5c 0d a3 3b 01 1d e5 bc
       -0.00053552684 0.030144498 0.004975958 -0.027967932
000040 84 67 de bc eb d3 16 3b 08 5b d4 bc 2b 40 00 bd
       -0.02714897 0.0023014497 -0.025922313 -0.031311195
000050 19 c9 80 3c 69 5e b5 3c 7e 0b d9 3b f9 13 4e bc
       0.01572089 0.022139745 0.0066236844 -0.012578004
000060 3a 98 9e 3c a8 5d 63 bc 82 c9 7c 3c 06 8a 94 bc
       0.019359697 -0.01387731 0.015428903 -0.018132221
000070 47 b3 d2 bb e3 9c f5 bc 5e e1 9e bc 50 c9 b7 3a
       -0.006430063 -0.029982036 -0.019394573 0.0014021788
000080 8e 31 b9 bd fa 07 a9 bc 66 7f a4 3c 33 e2 59 b8
       -0.09042655 -0.020633686 0.02008028 -5.1947496e-05
000090 3c bc cc bc 02 03 07 bd 7b 40 18 bc 45 13 57 bd
       -0.0249921 -0.032961853 -0.009292717 -0.05250861
0000a0 56 28 98 3c c0 59 b0 bd 08 77 75 bd c3 ee 43 3c
       0.018573921 -0.086108685 -0.05992797 0.011958781
0000b0 00 77 1c bd e3 97 3d bd ae 9d 7b bd 7d 54 5d bd
       -0.038199425 -0.04628743 -0.061429672 -0.054035652
0000c0 61 9e 80 bd a1 30 c1 bb 4f a4 36 bd cd b2 9d bd
       -0.062802084 -0.0058956896 -0.04459029 -0.07700119
0000d0 d8 1f cd bd 56 d3 ea bb 68 71 ac 3c 6b 0d 92 bc
       -0.10015839 -0.0071663065 0.02105017 -0.017828664
0000e0 ba 5d 87 bc 75 1f 20 bc d7 5a b1 bd 48 c0 70 bc
       -0.016524184 -0.009773125 -0.086599045 -0.014694281
0000f0 4e e2 c3 bc b5 07 0d bd a7 74 af bd 28 33 4d bd
       -0.023911621 -0.034431178 -0.085671715 -0.050097615
000100 50 0f 8d 3b e3 b1 cc bd 5d 77 8f bd 1b 04 81 bd
       0.004304804 -0.09994867 -0.070051886 -0.06299611
000110 ab d9 20 bd 2f c2 b8 bd fc 48 88 bd 1a 39 94 bd
       -0.039270084 -0.090214126 -0.06654546 -0.07237454
000120 62 63 91 bd c8 3a 30 bd 0f d4 3d bd d1 c6 b4 bc
       -0.07099034 -0.04302481 -0.046344813 -0.02206746
000130 a5 86 9c bd 49 64 70 bd 54 60 c0 bc 40 10 52 bd
       -0.07642869 -0.05868939 -0.023483433 -0.05128503
000140 e6 6c 3e bd e6 0e 9d bd a0 8c a3 bd 1b ae 32 bd
       -0.046490572 -0.07668857 -0.079858065 -0.04362307
000150 4f 3a 97 bd 4d ff 54 bd fe 00 5d bc c2 76 67 bd
       -0.07384168 -0.052001286 -0.013489006 -0.05650974
000160 81 b6 71 bd a2 21 60 bd 34 2c a9 bd e9 f8 66 bd
       -0.05901194 -0.054719575 -0.08260384 -0.056389723
000170 5e 29 94 bd 0f c3 93 bd 53 b8 72 bd e9 f9 90 bd
       -0.07234453 -0.07214939 -0.059257817 -0.070789166
000180 d5 a8 20 bd
       -0.03922351
