Models/srl-en_xlmr-base/linear_layer.pt (torch_old, 298894 bytes, 2 tensors)

weight f4 [97, 768]
0	0xbc26f21d	-0.01018956
1	0x3c9c5b04	0.019086368
2	0xbc3ebbf3	-0.01164149
3	0x3d1598e6	0.03652277
4	0xbd0e5a51	-0.0347541
5	0xbc2aafe2	-0.01041791
6	0x3cc222b2	0.023698185
7	0x3d1767b2	0.036964126
8	0xbd335a5c	-0.043787345
9	0x3c81f7ab	0.015865168
10	0xbc33d851	-0.010976867
11	0x3cbffe38	0.02343665
12	0x3d1b5878	0.037926167
13	0x3c628f09	0.013828048
14	0xbc413326	-0.01179198
15	0x3a944c71	0.0011314285
16	0x3cb2ab6f	0.021810262
17	0x3ca23a42	0.01980317
18	0xbd259be8	-0.040431887
19	0xbc23935c	-0.009983864
20	0x3cccfc43	0.025022632
21	0x3cebcd13	0.02878431
22	0xbd059c56	-0.032619797
23	0xbd2346c1	-0.039862398
24	0x3c1f6954	0.009729702
25	0x3d14c230	0.036318004
26	0xbd24f614	-0.04027374
27	0xbc84bdc1	-0.016203763
28	0xbd076c7e	-0.03306245
29	0x3c9211c2	0.017830733
30	0xbbda520a	-0.006662612
31	0xbd1c2809	-0.038124118
32	0xbc8d1698	-0.017222688
33	0x3ce6213f	0.028092025
34	0xbce890d7	-0.028389378
35	0xbc9786cc	-0.018496893
36	0x3c0df903	0.008665326
37	0x3cb9b5d8	0.022669718
38	0x3cf63629	0.030055122
39	0x3d19f408	0.037586242
40	0x3d06ea0e	0.032938056
41	0xbcf3cbee	-0.029760327
42	0x3cc99d39	0.024611102
43	0x3c7c362c	0.015393775
44	0xbcdff936	-0.027340513
45	0xbce722d9	-0.028214859
46	0x3cddc9c3	0.027073747
47	0xbce7395f	-0.028225599
48	0xbc4932ce	-0.012280179
49	0x3b6a6701	0.0035766962
50	0xbcd6236b	-0.026139935
51	0x3d2a1c5b	0.041530948
52	0xbc904f57	-0.017615957
53	0x3c28fdec	0.010314446
54	0xbc761b20	-0.015021116
55	0x3cbfab82	0.023397211
56	0xbcf2e95c	-0.02965229
57	0xbd095c94	-0.033535555
58	0xbd1b9ac4	-0.037989393
59	0x3c00b594	0.007855792
60	0x3bf6a576	0.0075270487
61	0x3c42b68e	0.011884345
62	0xbcb960a6	-0.022629093
63	0xbc205d99	-0.00978794
64	0xbd0fa0de	-0.035065524
65	0xbbd715f5	-0.006563897
66	0x3d171459	0.03688464
67	0xbd1a8d58	-0.037732452
68	0x3d16ef1a	0.03684912
69	0xbd1381c7	-0.036012437
70	0x3d262905	0.040566463
71	0xbccf711e	-0.025322493
72	0xbc273269	-0.01020489
73	0x3bf97177	0.007612403
74	0x3c09a010	0.008399978
75	0x3ca32776	0.019916277
76	0x3cc9bafa	0.02462529
77	0xbd1fde66	-0.039030455
78	0x3bce5809	0.0062971157
79	0xbc1cda1c	-0.009573486
80	0x3d210d21	0.03931916
81	0x3ca6a022	0.02034003
82	0x3c27eaff	0.0102488985
83	0x3ce7ab94	0.028280057
84	0xbcfd3766	-0.030910205
85	0xbd112933	-0.03543968
86	0x3cb35257	0.021889849
87	0x3d260002	0.04052735
88	0xbb7d4c5b	-0.0038650248
89	0xbce3d7f5	-0.027812937
90	0x3cb9dbfe	0.022687908
91	0x3c9af791	0.018916877
92	0x3ca8c58d	0.020602012
93	0x3c871f01	0.016494276
94	0xbceca0a2	-0.02888519
95	0xbcb25cce	-0.021772768
96	0xbd0ce40b	-0.034397166
97	0xbd247e39	-0.040159438
98	0xbc7dd8a1	-0.015493543
99	0x3c94b492	0.018152509
100	0xbbde88d0	-0.0067912117
101	0x3bed88ca	0.0072489725
102	0x3ce4be40	0.02792275
103	0xbc1de860	-0.009637922
104	0xbce88641	-0.02838433
105	0x3bdc9dc7	0.0067326757
106	0xbcb1d3d3	-0.021707451
107	0x3d1f0571	0.03882355
108	0x3cc900b5	0.02453647
109	0xbc2ae7d2	-0.010431247
110	0xbcc69201	-0.024239542
111	0xbc27eb8d	-0.010249031
112	0xbc9aa7f7	-0.01887892
113	0xbd10a582	-0.03531409
114	0xbcf6ec1c	-0.030141883
115	0xbcd241b3	-0.025666093
116	0xbbc118cb	-0.005892848
117	0xbd0d0d4c	-0.03443651
118	0xbcea08ab	-0.028568586
119	0xbc64e2f9	-0.01397013
120	0x3cc768e6	0.024342012
121	0xbb867a25	-0.004103916
122	0xbcd8bd2a	-0.026457388
123	0xbc92f3b8	-0.01793848
124	0xbd15c384	-0.03656341
125	0x3ca21c5c	0.019788913
126	0xbc868bfb	-0.01642417
127	0xbc401765	-0.011724328
128	0x3cfe2cac	0.03102716
129	0x3c4f75d1	0.012662367
130	0xbb7f131d	-0.0038921305
131	0xbc8538b6	-0.016262393
132	0xbc8054f0	-0.015665501
133	0xbbb24a00	-0.0054409504
134	0x3ca30130	0.019898027
135	0x3d0fe1e3	0.03512753
136	0x3cb139df	0.02163404
137	0x3cf78585	0.030215034
138	0x3bb34284	0.0054705758
139	0xbd29ac5a	-0.041424133
140	0x3c56ea71	0.013117419
141	0x3d19dc7d	0.03756379
142	0xbceb0b8f	-0.028692035
143	0x3d05a8a5	0.032631535
144	0xbcca91e3	-0.024727767
145	0xbd23496e	-0.03986495
146	0x3d055770	0.03255409
147	0x3c43ee58	0.011958681
148	0xbd143e49	-0.036192212
149	0x3c430d37	0.011905006
150	0xbcae2675	-0.021258572
151	0xbd2a024f	-0.041506108
152	0xbc22592e	-0.009908957
153	0xbc76caa6	-0.015062964
154	0xbd2db4f1	-0.042408887
155	0xbc18dba1	-0.009329707
156	0x3d0afe3f	0.033933874
157	0xbc3087fa	-0.010774607
158	0xbd214234	-0.039369777
159	0xbb8ca483	-0.0042920723
160	0x3d11b83d	0.035576094
161	0xbd0a84f1	-0.03381819
162	0x3d21c6d2	0.03949625
163	0x3ca223af	0.019792406
164	0x3cd5b8a0	0.026089013
165	0xbd2dc182	-0.04242087
166	0x3cce708a	0.025200147
167	0x3d07d4d2	0.033161946
168	0x3c15888a	0.009126792
169	0xbd28bad5	-0.041193802
170	0xbd1f540a	-0.038898505
171	0xbc1926f4	-0.009347666
172	0xbc824c48	-0.015905514
173	0xbd2e8dd8	-0.04261574
174	0xbcd23cbf	-0.025663732
175	0xbce1a830	-0.027546018
176	0x3cf5b41c	0.02999311
177	0x3cbeeba7	0.023305727
178	0xbb004a48	-0.0019575525
179	0x3d1ded4b	0.03855638
180	0x3d219afa	0.039454438
181	0x3b74871c	0.0037311977
182	0x3ca94f80	0.020667791
183	0x3cd63ff7	0.026153548
184	0xbcf58a77	-0.029973252
185	0x3bdf01ae	0.00680562
186	0xbc768493	-0.015046257
187	0x3cfdcc59	0.03098123
188	0x3d3d023e	0.046144716
189	0xbc53dc39	-0.012930923
190	0x3bc2a8ae	0.0059405183
191	0x3d05c5a8	0.032659203
192	0x3cfc2350	0.030778557
193	0xbcee465b	-0.029086282
194	0x3cacfcfa	0.021116722
195	0xba8335d6	-0.0010010551
196	0x3ce1b047	0.027549876
197	0xbb0a8f27	-0.0021142454
198	0xbc9719c8	-0.01844491
199	0x3cf15711	0.029460462
200	0xbbb330f2	-0.005468481
201	0x3cd3a68b	0.02583625
202	0xbcd37ada	-0.025815416
203	0x3c9db511	0.019251378
204	0x38f403bc	0.00011635522
205	0xb9ac5dac	-0.00032876187
206	0xbc9000a4	-0.01757843
207	0x3ca48c2c	0.02008637
208	0x3c8cf585	0.017206917
209	0x3c85ea14	0.016346969
210	0xbbca35e0	-0.006170973
211	0xbcd0adc1	-0.025473477
212	0x3d145ff2	0.036224313
213	0x3a5e9cf5	0.00084920163
214	0xbc0d1aa6	-0.0086123105
215	0x3d0a17b0	0.033713996
216	0xbc91573a	-0.017741788
217	0x3d153e7a	0.036436535
218	0xbd1d7ee6	-0.038451098
219	0xbcc05e97	-0.023482604
220	0xbd1609d6	-0.036630474
221	0xba0cc6da	-0.00053702074
222	0x3c78fdc0	0.015197217
223	0x3c447a28	0.011992015
224	0xbcf9ceb6	-0.030494075
225	0xbc909193	-0.01764754
226	0x3b0de256	0.00216498
227	0x3ccb5426	0.024820399
228	0x3d0d80b5	0.034546573
229	0xbc68a262	-0.014198871
230	0xbcd5eff0	-0.026115388
231	0x3cc9c38f	0.024629382
232	0xbcfbdcdf	-0.030744968
233	0xbbbfbbed	-0.00585126
234	0xbc118077	-0.008880726
235	0x3cd3af15	0.025840322
236	0xbd2da18b	-0.042390388
237	0x3cf00604	0.029299743
238	0x3ccb758a	0.02483632
239	0x3cdeb946	0.027187955
240	0xbbb47f14	-0.005508313
241	0x3c85a85c	0.016315632
242	0xbd0d7564	-0.03453578
243	0x3beeaec9	0.0072840196
244	0x3cdad078	0.026710734
245	0xbc8f3c91	-0.017484935
246	0xbd000ad2	-0.03126032
247	0x3cc47431	0.023981186
248	0x3cde50d1	0.027138146
249	0xbc4edf9f	-0.012626558
250	0xbca60720	-0.02026707
251	0xbd0c022a	-0.03418175
252	0x3d11d7f5	0.035606343
253	0xbba68b4e	-0.0050825244
254	0xba4063b5	-0.0007339076
255	0x3d297f94	0.041381434

bias f4 [97]
0	0x3cd3baaf	0.025845854
1	0xbc89e887	-0.01683451
2	0xbca67abd	-0.020322198
3	0x3d26936b	0.040667932
4	0x3c2e3bf0	0.010634407
5	0x3d13a463	0.036045443
6	0xbd48fba5	-0.049068112
7	0xbd0bbcfd	-0.03411578
8	0x3ce1e782	0.027576212
9	0xbd1a2fe8	-0.037643343
10	0x3caf4ed6	0.021399897
11	0xbd2b03c4	-0.041751638
12	0x3c34e036	0.011039784
13	0x39a6ee13	0.00031839366
14	0x3cd223dc	0.025651865
15	0xbcf7c0d6	-0.030243319
16	0x3c627c91	0.013823644
17	0xbcf13093	-0.029442107
18	0x3c9ea93e	0.01936781
19	0xbcb0d0da	-0.021583963
20	0xbc3e566f	-0.011617287
21	0xbbe55eac	-0.006999811
22	0xbd0c22de	-0.03421294
23	0xbd375359	-0.04475722
24	0x3d1554e1	0.0364579
25	0x3c723ead	0.014785451
26	0xbd538780	-0.051642895
27	0x3c3bf3f4	0.011471737
28	0xbd4189b1	-0.047250453
29	0xbd47e19d	-0.048799146
30	0x3ca91db8	0.020644054
31	0x3c5ce9a1	0.013483436
32	0xbe2ed050	-0.17071652
33	0xbcf13cf3	-0.029448008
34	0xbd39d16b	-0.045365732
35	0xbd0e9572	-0.03481049
36	0xbcb19c25	-0.0216809
37	0xbaa6a36e	-0.0012713501
38	0x3c19bf7c	0.009384032
39	0xbe01b91a	-0.12668267
40	0xbc0f3c62	-0.008742424
41	0xbe0af04f	-0.13568233
42	0xbe03eb5b	-0.1288275
43	0x3ca5dbf2	0.02024648
44	0xbdbf2f9f	-0.09335255
45	0xbd8c4f3b	-0.068510495
46	0xbe0c0ca2	-0.13676694
47	0xbd0f046c	-0.034916326
48	0xbd97cc6f	-0.074120395
49	0x3c8ab20f	0.016930608
50	0xbddcb81a	-0.10777302
51	0xbe08f344	-0.13374048
52	0xbe0a75bb	-0.13521473
53	0xbdb47a37	-0.08812373
54	0xbd1e4979	-0.038644288
55	0xbc1aa3eb	-0.009438495
56	0xbd924506	-0.071420714
57	0xbbce50ad	-0.0062962384
58	0xbe32b432	-0.17451552
59	0xbd0d4cdc	-0.034497127
60	0xbd8b0543	-0.06788113
61	0xbdc4d2a1	-0.09610487
62	0xbe035f5a	-0.12829342
63	0xbe2b2201	-0.1671219
64	0xbd2bf80c	-0.041984603
65	0xbe13c45f	-0.14430378
66	0xbde3eb4c	-0.11128864
67	0xbe0e5b4b	-0.13902013
68	0xbe04880d	-0.12942524
69	0xbdca27cb	-0.09870871
70	0xbe2180fb	-0.15771858
71	0xbdaa798a	-0.08323963
72	0xbd8afc27	-0.067863755
73	0xbe2c632e	-0.16834709
74	0xbe111245	-0.14167126
75	0xbd9a3f6a	-0.075316265
76	0xbda0cf1a	-0.078520015
77	0xbde84cc3	-0.11342766
78	0xbd4da888	-0.050209552
79	0xbdf9d943	-0.121996425
80	0xbe0de49e	-0.13856742
81	0xbe15897b	-0.14603226
82	0xbdda229f	-0.10651135
83	0xbe180339	-0.1484498
84	0xbdf89b2f	-0.12138974
85	0xbdaf75fd	-0.08567426
86	0xbd8fe914	-0.07026878
87	0xbdd0b40b	-0.101905905
88	0xbe27e01e	-0.16394088
89	0xbe0ca170	-0.13733459
90	0xbe096909	-0.13418974
91	0xbe1b8f04	-0.15191275
92	0xbe0c7f41	-0.13720419
93	0xbe2728e9	-0.163242
94	0xbde13300	-0.109960556
95	0xbe2f6098	-0.17126691
96	0xbe3255c9	-0.17415537
