Models/srl-pt_xlmr-large/linear_layer.pt (torch, 353727 bytes, 2 tensors)

weight f4 [86, 1024]
00000000: b479 b8bc 7697 43bc 7f44 cb3c 0ca1 12bc
00000010: 38cd 1abc 71ec 1bbb 1abc d3b9 da47 4c3c
00000020: 2c67 ddbb f380 4bbc 6af6 5fbc 0ca8 ba3c
00000030: b530 a2bc e343 f93b 12de a3bc d7d9 0bbc
00000040: 9b5b f13b b312 d43c 1a30 bc3c 6680 4639
00000050: e959 2d3c 0539 693c a723 c23c 0c8f c6ba
00000060: 41b3 2c3c d4bb 0bbc b7ab 87bc 6f8d 8b3b
00000070: f3e2 e13a 2fd4 a9bc c741 c2bc b96c aebc
00000080: 516c b33a 2c3f 663b c5b3 033d ffad 15bb
00000090: 4a6c 9a3c 585f 37bc 5d7d 353c 54cc 323c
000000a0: 3e75 aabc a519 023d 76a3 debc f601 d63c
000000b0: 9df3 db3c 55ef 043d 7b77 993c 80e6 d73b
000000c0: 41df b4bc ed8f e63c b448 fdbb 0680 c2bc
000000d0: 69d1 c4bc 878f 223c 9a10 e23c d10a b53c
000000e0: 5c0a 073c 4fdf 84bc 1d25 db3c c636 a7bb
000000f0: 95f1 dcbc 6624 a83c 2bed 20bc ac09 983c
00000100: 80fa f7bc e828 6d3c 29f3 433b 19ab c0bc
00000110: 83df d63a 6af9 06bd dd8b 99bc c8f2 bd3b
00000120: a695 cbbb 4c59 d8bc ab4b d5bc 55b7 d9bc
00000130: 3b83 a43c a2c4 3f3c 680f debc 04e2 df3b
00000140: 81ab 2a3c bc61 2ebc 12f7 403c fbf9 c53c
00000150: afdf c53c 24eb a13c e69a 01bd 89a9 063c
00000160: 5652 3b3c 51e1 343b 5d8d 2c3c e9a1 a83c
00000170: a7ed b0bc f2d7 72bc 4338 dc3c cb31 553b
00000180: 6122 903c cbc1 e5bc d934 9f3c 9916 f53b
00000190: bcb4 c339 9b84 fcbc 218a a33c f8d3 a33c
000001a0: 7ee5 8c3c 201f d63c f7f9 443b a9ec d53c
000001b0: fc7e e8bc f47e 9cbc 0b18 e8bc 000d a1bc
000001c0: e14d d13c 1161 40bc 90b4 61bc 17b1 3138
000001d0: 5e0c bdbc 72a6 b2bc 431c 1cbc 0e01 8f3c
000001e0: ca46 8dbc ca39 033b 3cee d1bb 4621 463c
000001f0: 8b87 b9bc d66a c03c 699e 9ebc f8cc 8fbc
00000200: 3183 10bc b727 7a3b b5b4 d7bb 9a68 4abc
00000210: ba95 2dbc 38f0 44bc dac1 88bc 8219 813c
00000220: ca8b d6bc 0a93 26bb 37cf 093c bedb b3bb
00000230: 7419 1fbc 2d81 90bc 2618 033d a5c0 c13c
00000240: d287 83bc 58af 693c 5d5e bfbc 1f3c 5d3c
00000250: b0d2 adbc be7f b23c cfa7 21bc 8b58 9cbc
00000260: 94f7 c7bb e361 0a3c 82d1 d93b b068 21bc
00000270: 4b84 8dbc 12bd bebc 4299 8cbc bcb3 dfbb
00000280: 43c2 83ba 4b2c c43c 4d75 09ba e53e efbc
00000290: a697 9abc 1270 e0bc 159f 8d3c 5914 cb3c
000002a0: 6ed7 3abc 3602 363b 02fc 93bc 61f6 22bc
000002b0: a4b1 903c de42 31bc 28a1 2f3b d196 8d3c
000002c0: 45a3 e83c a6e4 a1bc d3e5 873b e2c7 fabc
000002d0: 5415 dcbc b421 673a 3568 fd3c 6733 4d3c
000002e0: 4884 aebc dfe2 5d3c 27dd 56bc 20f2 163c
000002f0: 5b42 8fbc 55ba 673c cd9b debc 1e86 ffbb
00000300: 820d 8bbc f259 733c 11e9 ed3c 24a3 423c
00000310: fb0e 95bc 5d79 3cbc 8875 52bc ac5d ec3c
00000320: ad1e 2a3c 9c2f 70bc 7809 e2bc c0ec 693c
00000330: 090a 163c 9d0a 27bc 811f 5a3a edee cc3c
00000340: 9d7d 533c f07d cc3c f643 063c 377d c2ba
00000350: 0c1d 61bc dd59 ec3c 3f23 223c ac7a 1bbc
00000360: 9a82 a43c 469c 27bc 5da3 3bbc 757b c43a
00000370: a6e4 4ebc e0f3 c4bc b463 933c 1080 a83c
00000380: 26f4 003b c21b 653c f825 e5bc 364c a4bc
00000390: bdc9 aa3c 31dc bdbc ed12 c1bb b85b a9bb
000003a0: 8a4c 7ebc 25d8 ff3b 6d6a 12bb 10ce c63b
000003b0: 33f9 94bc 12b5 b33b 0def 913c e219 603c
000003c0: 113e 9a3b 847a 85bc 4f49 d5bc 6608 033c
000003d0: f150 813c 47a8 9a3c 4265 d5ba 7f15 42bc
000003e0: defc e73c d387 41bc 674c c6bc f3b0 813c
000003f0: 5be8 513c a3c9 d1bc b446 9f3c 0d0d fc3b
-0.02251897 -0.011937967 0.024812935 -0.008949529 -0.009448342 -0.0023792053 -0.00040385203 0.012468303
-0.006756684 -0.012420881 -0.01366959 0.02278521 -0.019798616 0.0076069697 -0.020003352 -0.008535824
0.0073656566 0.025887823 0.022972155 0.00018930584 0.010580518 0.014234786 0.023698641 -0.0015148832
0.010540784 -0.008528668 -0.016561372 0.0042588036 0.0017233774 -0.02073106 -0.023713006 -0.021292077
0.0013688897 0.0035132868 0.032153863 -0.0022839305 0.018850464 -0.011192165 0.011077252 0.010912973
-0.020807859 0.031762738 -0.027177554 0.026123982 0.026849562 0.032454807 0.01873373 0.006588757
-0.022079112 0.028144801 -0.007729614 -0.023742687 -0.024025636 0.009921915 0.027595807 0.022099884
0.008242216 -0.016219763 0.026751095 -0.005102965 -0.026970664 0.020525169 -0.00982217 0.0185593
-0.030270815 0.014475085 0.0029899573 -0.023519086 0.0016393516 -0.032952704 -0.01874345 0.005796764
-0.006212908 -0.026409768 -0.026037058 -0.026576677 0.020082107 0.011704596 -0.027106956 0.006832363
0.010416866 -0.010643419 0.011777656 0.024167052 0.024154512 0.019765444 -0.031641863 0.008219131
0.011433205 0.002760012 0.0105317505 0.020585017 -0.021597696 -0.014821993 0.026882296 0.00325309
0.017594518 -0.02804651 0.01943438 0.0074795005 0.00037327956 -0.03082495 0.019963326 0.019998536
0.017199274 0.026137888 0.0030056217 0.026113825 -0.028380863 -0.019103505 -0.028331777 -0.01965952
0.02554983 -0.011741892 -0.01377596 4.2365016e-05 -0.023077186 -0.021807883 -0.0095282225 0.017456558
-0.017245669 0.0020023459 -0.0064065736 0.012092894 -0.02264764 0.023488443 -0.019362645 -0.017553791
-0.008820341 0.0038170645 -0.0065828213 -0.0123540405 -0.01059478 -0.012020163 -0.016693998 0.015759233
-0.026189703 -0.0025417232 0.00841122 -0.005488842 -0.009710658 -0.01763972 0.03200545 0.02365143
-0.016055975 0.014262997 -0.023360426 0.0135031035 -0.021218628 0.021789428 -0.009866669 -0.01908519
-0.0061025117 0.00844619 0.0066472897 -0.00985162 -0.017274996 -0.023283515 -0.017162923 -0.006826846
-0.0010052401 0.023946902 -0.00052436144 -0.029204795 -0.01887114 -0.02739719 0.01728777 0.024789976
-0.0114039015 0.0027772314 -0.018064503 -0.009946437 0.01766283 -0.010819165 0.0026798937 0.017283829
0.028398165 -0.019762348 0.00414727 -0.03061289 -0.026865639 0.0008816973 0.030933479 0.012524462
-0.021303311 0.01354286 -0.01311425 0.009213001 -0.017487695 0.014143546 -0.027173901 -0.0077979704
-0.016974214 0.014852988 0.029041799 0.011879716 -0.01819562 -0.011503545 -0.012845404 0.02885326
0.01038329 -0.014659788 -0.027592406 0.014277637 0.009157666 -0.0101954015 0.00083207345 0.025016272
0.0129083665 0.024962395 0.008194914 -0.0014838342 -0.0137398355 0.028851444 0.009896099 -0.0094896965
0.020081807 -0.01023013 -0.011452523 0.0014990406 -0.012627756 -0.02404207 0.017991878 0.020568877
0.0019676774 0.013983669 -0.027972206 -0.020055871 0.02084815 -0.023176285 -0.0058921487 -0.0051684044
-0.015521178 0.007807749 -0.0022341267 0.006067045 -0.018185234 0.0054842317 0.017814184 0.013678046
0.004707106 -0.016293772 -0.026035933 0.007997608 0.015785666 0.018879069 -0.0016280788 -0.011845945
0.028318819 -0.011812168 -0.024206353 0.015831446 0.0128117455 -0.025608843 0.019442894 0.0076919855

bias f4 [86]
00000000: 78d6 a1bc a005 a4bc 6677 6e3c bdbf debc
00000010: 7d64 bb3c 0313 b0bc 6746 f43b 18a0 233c
00000020: c918 363c 32e9 13bb 5da0 73bc 38b9 e0bb
00000030: e79c 7ebc 938d 9c3a 51d2 5c3c b8d0 133c
00000040: bb7c f3bc e273 80bc babc 423c d1f0 d43c
00000050: 6c0e 0abd f306 74bc 090b eebb 5dd7 c0bc
00000060: eafc 743c dc2e 943c 8a9a 9dbc b531 92bc
00000070: 8ce8 bf3b cfa4 f0bb 0add f0bc f83c b73b
00000080: 73ed c73c 5a7b c83c 7cda 573c f084 35ba
00000090: d053 803c e7ea c3bc 3027 84bb bff3 61bc
000000a0: caf7 12bd a34a 273b 0ee4 263c 6ca9 08bd
000000b0: 6858 0abd 4b8e 2bbc 80e9 4cbc e88b 9a3b
000000c0: 5a5d 553c 3054 173c df36 9a3c 5e0e bd3b
000000d0: 6e18 23bc a89b 623c c430 00bd c4cd 09bd
000000e0: 264d 93bc 08f0 24bd ff44 26bb ff0a 37bd
000000f0: becd 083b f3fb c7bc 37e3 3a3c d01f 33bd
00000100: f0bc 03bd 9d0c 693c 12c9 3b3a 4975 97bc
00000110: 0d31 0cbd e5ae eabb b040 27bd b729 15bd
00000120: 5873 d03a b12c 34bd 5dd0 26bc a9b4 51bd
00000130: ebaf 9dbb 9d5d 51bd a5b9 b6bc c07b 60bd
00000140: 869e 85bc f5da 96bc 0607 633b a233 98bc
00000150: c14c 31bd f252 3ebd
-0.019755587 -0.020022213 0.014554834 -0.027191037 0.022875065 -0.02149344 0.0074546817 0.0099869
0.011114308 -0.0022569415 -0.014869777 -0.0068580173 -0.015540338 0.0011944048 0.013477878 0.00902193
-0.029722562 -0.015680257 0.011885816 0.025993736 -0.03370516 -0.014894235 -0.007264499 -0.023540193
0.014952878 0.01808875 -0.019238729 -0.017845968 0.005856579 -0.0073438655 -0.029402275 0.005591985
0.024405217 0.024472881 0.013174649 -0.0006924411 0.015664965 -0.023915721 -0.004032992 -0.013791024
-0.03588084 0.0025526665 0.010186208 -0.0333647 -0.033775717 -0.010470937 -0.012506843 0.004716385
0.013022745 0.00923638 0.018824993 0.005769535 -0.009954555 0.013831057 -0.031296507 -0.0336435
-0.017981123 -0.040267974 -0.0025370715 -0.04468822 0.0020874585 -0.024412131 0.011406711 -0.04373151
-0.032162607 0.014224199 0.00071634457 -0.018488543 -0.034226466 -0.0071619623 -0.040833175 -0.036416736
0.0015903516 -0.043987934 -0.010181514 -0.05119768 -0.004812231 -0.051114667 -0.02230532 -0.054805517
-0.016310941 -0.018414954 0.0034641637 -0.018579308 -0.04328609 -0.04646582
