Models/srl-enpt_xlmr-base/linear_layer.pt (torch_old, 298894 bytes, 2 tensors)

weight f4 [97, 768]
00000000: d33c 19bc b4d8 913c 0e6d ccbb b089 123d
00000010: 30dd febc a076 69bc 0c64 c33c 6797 263d
00000020: 9200 40bd 221c 8f3c b2f0 e8bb 4dce db3c
00000030: f142 1c3d 9d92 093c 0ab7 51bc ebaa 173b
00000040: fd4a c83c 25a5 b93c e239 2bbd 7e9b 4cbc
00000050: a4af be3c 4dbc 043d 9d64 f2bc 0f9a 27bd
00000060: 9c7e 3a3c 56f2 1b3d 5feb 16bd 2fee bfbc
00000070: a836 15bd 86d6 823c 5c92 d4bb 9768 0ebd
00000080: 63c2 92bc cfe9 e53c 9dfd 0ebd 5df8 9bbc
00000090: 885f 263c d84c cc3c c70f 093d f216 1c3d
000000a0: 15e8 f13c d9e6 0ebd 2780 dc3c 61c0 b93c
000000b0: 6766 e2bc 0350 f5bc a55c f03c a306 08bd
000000c0: 1364 43bc a19f 113c 89a4 e9bc dfa1 383d
000000d0: f881 95bc ea41 d83b f8e1 a3bc f3ed ca3c
000000e0: 0bbd e2bc dedd 0fbd 3f35 10bd 5d24 af3b
000000f0: b353 a63b 68d1 3b3c d940 c9bc 38b2 a2bc
00000100: bcc4 0dbd dcfd 2ebc 4f6e 283d fc49 1ebd
00000110: 10d0 273d 17e0 07bd d633 253d 6e9d aabc
00000120: 0fc4 87bc 80f4 143c a2dd 763c c026 a53c
00000130: 305b e83c cb8c 25bd 40c7 5bba 5ed9 64bc
00000140: c237 1c3d 14b6 a83c 56f7 563c ad8b fe3c
00000150: 7603 e7bc b68c 1bbd 2ecb e83c 0545 1e3d
00000160: 0384 2eba bfb8 fcbc 123a b13c 610e a63c
00000170: 9171 c53c 2bc3 8d3c 1852 e1bc e073 a2bc
00000180: 14d7 21bd ee92 21bd b124 8dbc 84f3 e13c
00000190: 3659 b6bb f30b 0d3c 183d cc3c 7207 82bc
000001a0: 1826 ecbc 8f39 043c 657a b4bc 1f3c 283d
000001b0: ed49 b63c 1e83 4cbc 251c b7bc f17f 74bc
000001c0: 16c1 dabc 7fff 09bd a06a 04bd fd08 babc
000001d0: ac66 76bb d486 f1bc 2176 c8bc 1874 b5bc
000001e0: 8188 ac3c 8fe4 a13a e99e c8bc a8e1 9cbc
000001f0: 999a 17bd 17a3 9d3c 661c b7bc a722 c5bb
00000200: 8517 093d 065c 523c a5f7 08bb c074 a4bc
00000210: be37 91bc a0df 58bb 21ce 883c 90aa 133d
00000220: 3714 d03c 8d76 ec3c 8794 c83a ee3c 35bd
00000230: f97f 5c3c 4fd5 233d b40c ddbc 3d39 083d
00000240: d2e0 b4bc bd55 18bd c176 fb3c 3648 073c
00000250: e43e 2cbd c652 0c3c 06e7 99bc 5975 1bbd
00000260: b746 0fbc c843 9fbc 015a 1ebd 4de4 20bc
00000270: b8f7 ff3c f7a3 52bc bb4b 0dbd 2fb4 08bc
00000280: af6c 1c3d a06e 12bd 67f7 1b3d c2a8 c13c
00000290: 26d1 f53c e65e 42bd b3c6 003d e3ee 043d
000002a0: 891f c73b 221c 27bd 06f6 1ebd 81fb 48bc
000002b0: a5d0 acbc 9892 32bd 4ea2 a3bc 28f7 c3bc
000002c0: 4f71 ff3c 9688 b13c 1ca9 a0bb ff50 323d
000002d0: c0d8 0d3d 4049 413b 58ac b93c 4b82 e63c
000002e0: 7cb3 fcbc 2a24 2e3c 5b62 82bc c60d 153d
000002f0: b708 423d c1c1 82bc aa0d 0b3c 8c33 f83c
00000300: ee0c 0b3d d43b edbc eca5 c33c 1119 1fbc
00000310: ee0d ed3c 727d 10b9 0e9e 89bc 6abb 093d
00000320: 867a 1cbc edae f03c 6ba7 dabc 6301 a83c
00000330: 4d90 bfbb 1116 173b 4755 92bc c36c 963c
00000340: daba c03c 2e16 933c 819d 0ebb fbf4 e4bc
00000350: 9ded 123d 85a7 283b 8e7b 4ebc a167 073d
00000360: 9f7e c7bc 2022 213d e650 1ebd 0072 c9bc
00000370: 8015 30bd 2c1d a73b b6bf 723c f6de d73b
00000380: 9715 04bd e4e4 89bc d2df 1cb9 2f14 df3c
00000390: 6456 1b3d 56c0 40bc c4ed dfbc 04d4 c63c
000003a0: 8996 02bd bc53 1dbc f1ef debb 8081 ea3c
000003b0: 8932 3ebd e9e5 e93c 6d4f d43c 868e 033d
000003c0: e9ac bbbb b58d 643c 65da 0abd 2e46 213c
000003d0: f07b cc3c a075 85bc e7b5 febc cf8d b63c
000003e0: 8d81 eb3c e202 25bc 4c90 88bc f215 0abd
000003f0: 6027 113d e089 13bc 6556 5e3b a8d0 2b3d
-0.0093528805 0.017803527 -0.0062385863 0.03577584 -0.03111133 -0.014249474 0.023851417 0.040671732
-0.046875544 0.01746947 -0.0071087712 0.02683177 0.038149778 0.008396772 -0.012799988 0.0023142647
0.02444982 0.022661755 -0.04180325 -0.012488244 0.023277111 0.03240614 -0.029588992 -0.040918406
0.011382725 0.038072906 -0.03684556 -0.023429004 -0.036429077 0.015971433 -0.006487174 -0.034767713
-0.017914956 0.02806559 -0.034909833 -0.019039327 0.010154612 0.024938986 0.033462312 0.03810782
0.02952961 -0.034888122 0.026916577 0.022674741 -0.02763672 -0.02994538 0.029341051 -0.033209454
-0.011925715 0.008888156 -0.02852084 0.045076247 -0.01825045 0.0065996544 -0.020005211 0.024771666
-0.027678033 -0.0351237 -0.03520703 0.005344911 0.0050758957 0.011463501 -0.024567055 -0.019860372
-0.03461145 -0.010680642 0.041120823 -0.038644776 0.04096991 -0.033172693 0.040332638 -0.020827021
-0.01657298 0.0090914965 0.01506749 0.020160079 0.028363794 -0.040417474 -0.00083838776 -0.01396784
0.038139112 0.020594634 0.013120493 0.031072462 -0.028199892 -0.03797599 0.028417196 0.03864004
-0.00066572445 -0.030849813 0.021634135 0.020270528 0.024102004 0.017304977 -0.027504966 -0.019830644
-0.039511755 -0.039446764 -0.01722941 0.027581938 -0.005564834 0.008608806 0.024931476 -0.01587269
-0.028826758 0.008070364 -0.022031019 0.04107296 0.022252047 -0.012482433 -0.022352288 -0.014923082
-0.026703399 -0.033690926 -0.032328248 -0.022709364 -0.0037597818 -0.029483236 -0.02447039 -0.022150084
0.021061184 0.0012351441 -0.024489837 -0.01915057 -0.03701267 0.019242806 -0.022352409 -0.006016094
0.033469696 0.012839323 -0.002089956 -0.020075202 -0.017726775 -0.0033092275 0.016699852 0.036051333
0.025400264 0.028865123 0.0015303054 -0.04424756 0.013458245 0.03999835 -0.026983596 0.03325771
-0.022079859 -0.03719114 0.030696275 0.0082569625 -0.042052165 0.008564657 -0.018786918 -0.03795371
-0.008744887 -0.0194415 -0.038660053 -0.009820056 0.031246051 -0.012856475 -0.03449605 -0.00834374
0.038189586 -0.03575003 0.038077738 0.02364004 0.030006956 -0.047453783 0.031439494 0.032454383
0.0060767573 -0.040798314 -0.038808845 -0.012266994 -0.021095583 -0.043596834 -0.019974854 -0.023921564
0.03118196 0.021671575 -0.004902972 0.043534275 0.034630537 0.0029493123 0.022665188 0.0281383
-0.030847304 0.010628739 -0.01591604 0.03639009 0.047371592 -0.01596153 0.0084871445 0.030298017
0.033947878 -0.028959192 0.023882829 -0.009710566 0.028937306 -0.00013779642 -0.016799 0.033625998
-0.009550696 0.029380286 -0.02669116 0.020508474 -0.0058460594 0.0023053924 -0.017862929 0.018362409
0.023526598 0.017954912 -0.002176136 -0.027948847 0.035871137 0.0025734615 -0.0126027 0.033057813
-0.02435237 0.039339185 -0.03865137 -0.024590492 -0.042989254 0.005099913 0.014816215 0.0065878583
-0.032247152 -0.016832776 -0.00014960699 0.027231304 0.037924185 -0.011764606 -0.027335055 0.024271019
-0.031881843 -0.009602483 -0.0068035056 0.028626204 -0.046434913 0.028552013 0.02591678 0.032118343
-0.0057273996 0.013949801 -0.033899684 0.009843392 0.024961442 -0.01629144 -0.031092597 0.022284416
0.028748298 -0.010071488 -0.016670369 -0.033712335 0.03543794 -0.00900504 0.0033926007 0.041947037

bias f4 [97]
00000000: 97aa 153d 3d85 68bc 01d7 aabc a49e 193d
00000010: a63e 9e3b 0884 db3c 45db 58bd f1af 18bd
00000020: 2ba0 ce3c 08ce 30bd 7e3e 9d3c cd40 46bd
00000030: 1d78 133c ceba 03bc 8be6 b03c 73f5 1abd
00000040: 038f 1d3c 4b24 07bd ee44 683c 5d1e e6bc
00000050: 7630 93bc a9ab 67bc c7bc 21bd ef04 47bd
00000060: bdaa f23c 7916 183c ccc0 8bbd afca bf3b
00000070: 63e5 51bd 8bb9 4abd a6dd 103c 737c 363b
00000080: 9559 2cbe bdd8 04bd d686 66bd f27b 27bd
00000090: d7be 02bd a5ab 89bc eddc fcbb aa73 02be
000000a0: 02f1 d9bc b400 0dbe 4e76 00be a3bc b33b
000000b0: 2124 c7bd b735 9bbd cc38 13be 8f51 2cbd
000000c0: 0e69 99bd 7fbf 3bbc 0ad2 edbd 3b95 0ebe
000000d0: dd83 0cbe 5cb7 c0bd 0d7f 40bd cb58 34bd
000000e0: 8fea a3bd 0ac0 09bd e84d 37be c4c7 5abd
000000f0: a74d 9fbd 0e72 d6bd d649 0bbe 3351 31be
00000100: d65d 54bd d18a 20be edb9 01be 3ef8 20be
00000110: 06ea 19be 9483 dabd ecf1 32be 595c cdbd
00000120: 7041 a0bd 1227 3ebe d783 1cbe dfc3 d2bd
00000130: 9ad4 d1bd a29c fdbd 478d e0bd cd0b 1abe
00000140: 6cac 23be 04fd 73be 4d24 1fbe 2996 30be
00000150: a7a9 27be 6a9a 01be ad94 36be 6798 4bbe
00000160: 1b98 83be 7333 6cbe 7b35 69be 979d 78be
00000170: 9918 6abe 7934 83be 835b 4fbe 4777 86be
00000180: 3873 88be
0.03653964 -0.014191923 -0.020854475 0.037504807 0.0048292456 0.026796356 -0.052943487 -0.037277166
0.025222858 -0.043165237 0.019194838 -0.048401643 0.009000805 -0.008040143 0.021594306 -0.037831735
0.009616616 -0.032993596 0.01417659 -0.02809065 -0.017967444 -0.014140048 -0.039486673 -0.04858869
0.02962243 0.009282702 -0.068238825 0.005853019 -0.05124415 -0.049493354 0.008841908 0.0027845174
-0.16831048 -0.03243326 -0.056280933 -0.040889688 -0.03192028 -0.01680548 -0.007716766 -0.12739435
-0.02660418 -0.137698 -0.1254513 0.0054851337 -0.09723688 -0.07578605 -0.14377135 -0.042069968
-0.07490741 -0.01145923 -0.116123274 -0.13924114 -0.13722177 -0.09409973 -0.046996165 -0.044029992
-0.08003723 -0.03363041 -0.17900813 -0.053413168 -0.07778483 -0.10470973 -0.13602385 -0.17316131
-0.0518473 -0.15677954 -0.12668581 -0.15719697 -0.15030679 -0.10669628 -0.17475098 -0.100273795
-0.07824981 -0.18569592 -0.15284668 -0.10291266 -0.10245629 -0.12383391 -0.109644465 -0.15043564
-0.15983742 -0.23826987 -0.15541191 -0.17244782 -0.16373311 -0.1265656 -0.17830153 -0.19882356
-0.25701985 -0.23066501 -0.22774307 -0.24278866 -0.22860946 -0.2562597 -0.20249753 -0.26262876
-0.26650405
