Models/srl-enpt_mbert-base/linear_layer.pt (torch_old, 298894 bytes, 2 tensors)

weight f4 [97, 768]
0	0xbd24b2ce	-0.040209584
1	0xbd10771b	-0.035269838
2	0x3d1a5b0b	0.03768448
3	0x3c83b188	0.016075864
4	0x3cad6abd	0.02116906
5	0xbc62d060	-0.013843626
6	0x3b38c1d3	0.00281917
7	0x3c93f4ae	0.018061008
8	0xbd10d852	-0.03536255
9	0xbd1e126f	-0.0385918
10	0x3d215d86	0.03939583
11	0x3ca2f2fd	0.019891256
12	0xbc8dc765	-0.017306993
13	0xbccb6c19	-0.024831818
14	0xbd15324c	-0.03642492
15	0xbd0af6a5	-0.033926625
16	0x39d88666	0.00041298865
17	0xbce98903	-0.028507715
18	0x3caca0fb	0.021072855
19	0xbd366f67	-0.044539835
20	0x3d04cf0f	0.03242403
21	0x3cc8b4bf	0.024500249
22	0x3d35ca76	0.044382535
23	0xbd2a7b06	-0.04162123
24	0x3d0dac23	0.03458799
25	0x3c3d6b22	0.011561187
26	0x3cb781b3	0.022400713
27	0x3c623720	0.013807088
28	0xbc8275b1	-0.01592526
29	0xbc626749	-0.01381857
30	0x3d3e4081	0.046448234
31	0x3d2f1221	0.0427419
32	0xbc15aaf4	-0.009134997
33	0x3c5b6832	0.013391541
34	0xbb464295	-0.0030252088
35	0xbca23260	-0.019799411
36	0x3d2a0b80	0.041514874
37	0xbb38e38f	-0.0028211807
38	0x3b0e13cb	0.0021679278
39	0x3c580b09	0.013186225
40	0x3caf7323	0.021417206
41	0x3b85b417	0.0040803063
42	0xbce816cd	-0.028331185
43	0x3d0ab976	0.033868276
44	0xba0c9b47	-0.00053637143
45	0xbc1453ec	-0.009053212
46	0x3d2d1bf9	0.042263005
47	0x3ccc7091	0.02495602
48	0x3d1eb5f9	0.03874776
49	0x3d0f4527	0.03497806
50	0xbbb642b7	-0.0055621522
51	0x3d0001cb	0.03125171
52	0xbd13b73b	-0.036063414
53	0x3d09c317	0.033633318
54	0xbcf4eb83	-0.029897457
55	0xbd00ba80	-0.03142786
56	0x3d055120	0.03254807
57	0xbc2451cf	-0.01002927
58	0x3bbefda1	0.0058285748
59	0x3ba21fa0	0.0049476177
60	0xbbde90cf	-0.006792165
61	0x3cb84ae2	0.022496644
62	0x3d3c192c	0.045922443
63	0xbd0e979d	-0.03481256
64	0xbd2d791c	-0.042351827
65	0x3cdba2a5	0.026810953
66	0xbcbc655a	-0.022997547
67	0x3c9ba225	0.018998215
68	0x3d287845	0.041130323
69	0x3cbc40ca	0.022980113
70	0x3ca61945	0.020275721
71	0xbd29ca4d	-0.041452695
72	0x3cd63b8d	0.026151443
73	0x3d0b3556	0.033986412
74	0x3cd4f8d6	0.02599756
75	0x3d02991e	0.031884305
76	0xbcf6937f	-0.030099628
77	0xbd29e68b	-0.04147963
78	0x3c73f303	0.0148894815
79	0xbd2db869	-0.042412195
80	0x3d2fdf91	0.04293782
81	0xbc407457	-0.011746488
82	0xbd253998	-0.04033813
83	0xbd341662	-0.04396666
84	0x3b673119	0.0035277067
85	0xbd2ed69d	-0.04268514
86	0xbc023d81	-0.007949234
87	0x39cac79b	0.0003867716
88	0xbc7a4ae1	-0.015276642
89	0xbc108175	-0.008819927
90	0x3cd015f2	0.02540109
91	0xbc934ac4	-0.017979987
92	0xbd0a0e54	-0.03370507
93	0x3c961312	0.01831964
94	0xbcf0e670	-0.029406756
95	0xbc3b8ae1	-0.0114466855
96	0xbacbf57d	-0.0015560832
97	0x3bcecadf	0.006310805
98	0x3cc3d915	0.023907224
99	0xbc9a835f	-0.01886147
100	0xbbc492b1	-0.0059989323
101	0x3c11c833	0.008897829
102	0x3d1e8fcc	0.038711354
103	0x3b37ceab	0.0028046768
104	0x3cf7fb64	0.03027124
105	0xbd002e1c	-0.031293973
106	0x3c01f975	0.00793301
107	0xbc4e013a	-0.012573535
108	0xbd090962	-0.033456214
109	0xbb89f462	-0.004210041
110	0x3ce3afff	0.027793882
111	0xbca5405a	-0.020172287
112	0x3c317d5c	0.010833111
113	0x3c5396e8	0.012914397
114	0xbcf5c9d7	-0.030003471
115	0x3cc4cd81	0.024023773
116	0x3d31d789	0.04341844
117	0x3bae2df9	0.005315539
118	0x3c1b9d4f	0.0094979545
119	0x3c29676e	0.010339601
120	0x3c0c0fe4	0.0085487105
121	0xbd34623b	-0.044038992
122	0xbc5da14f	-0.0135272285
123	0xbcb74829	-0.022373276
124	0xbca09013	-0.01959995
125	0xbcade608	-0.021227852
126	0xbc4c7b3b	-0.012480552
127	0xbcacd5ee	-0.021098103
128	0x3c386d67	0.011256552
129	0xbc742896	-0.014902255
130	0x3c6c6cfb	0.01443028
131	0xbce36aec	-0.027760945
132	0x3d195d3c	0.03744243
133	0x3b91c69a	0.004448724
134	0xbc8e63f8	-0.017381653
135	0xbce0d8e7	-0.027447177
136	0x3d40e18f	0.04709011
137	0xbd49eae7	-0.049296286
138	0x3c63197f	0.013861059
139	0xbc6ca3d5	-0.0144433575
140	0x3d2d9a08	0.042383224
141	0xbce79e28	-0.028273657
142	0x3bdbe783	0.006710948
143	0x3cb37ee7	0.021911098
144	0x3c8baa0c	0.017048858
145	0x3bb3fe0b	0.0054929308
146	0xbd46891c	-0.0484706
147	0xbc747e41	-0.014922679
148	0xbbe14329	-0.006874461
149	0xbcabdb11	-0.020978482
150	0x3c1a2ce8	0.009410121
151	0x3c720b68	0.014773227
152	0xba7a5338	-0.0009549144
153	0xbd1a527d	-0.037676323
154	0xbca9b0a8	-0.02071412
155	0x3d0dcbb4	0.034618095
156	0x3ba5d24f	0.005060471
157	0xbd1300be	-0.03588938
158	0x3d05f0c0	0.0327003
159	0x3c8743f7	0.0165119
160	0x3cf2e0f9	0.029648291
161	0xbc84cbc6	-0.016210448
162	0xbcfb07b5	-0.030643323
163	0x3bb118b6	0.005404557
164	0xbd101c48	-0.03518322
165	0x3cd12ebd	0.025534982
166	0xbc5e685f	-0.013574689
167	0xbd145097	-0.03620967
168	0xbcf8bf68	-0.030364707
169	0x3d271308	0.040789634
170	0x3bbdcf9d	0.0057925717
171	0xbc1c8525	-0.0095532285
172	0x3be91c85	0.0071139955
173	0x3ce55c01	0.027997972
174	0xbce35145	-0.027748713
175	0xbcb69c88	-0.022291437
176	0xbb8a34aa	-0.004217704
177	0x3c7c7d28	0.015410699
178	0xbcda16bf	-0.026622174
179	0x3d12340f	0.03569418
180	0xbcd1eaf8	-0.025624737
181	0xbc2d9dec	-0.010596734
182	0xbbe240a7	-0.00690468
183	0x3d213c9d	0.039364446
184	0xbcb0fda8	-0.021605328
185	0x3c4f9e51	0.012672023
186	0xbd2dbe12	-0.042417593
187	0xbcde11d6	-0.027108114
188	0xbd1e1e3c	-0.038603052
189	0x3c1d21a1	0.009590537
190	0x3b987e12	0.0046537006
191	0x3cae0ca9	0.021246271
192	0x3cefdc56	0.029279869
193	0xbd184587	-0.03717568
194	0x3d269fd8	0.040679783
195	0x3cd786a3	0.026309317
196	0xbcf7b9ff	-0.030240057
197	0xbd0fec4f	-0.03513747
198	0x3cfccb96	0.030858796
199	0x3cfe90ea	0.03107496
200	0xbd1bcbc9	-0.03803614
201	0x3c051060	0.00812158
202	0xbc1f8a58	-0.009737574
203	0x3d0050e0	0.03132713
204	0xbc8c6291	-0.017136844
205	0xbc9a41c5	-0.01883019
206	0x3bd233d4	0.00641487
207	0xbc8f802a	-0.017517168
208	0x3d072926	0.032998227
209	0xbc2baeaa	-0.010478655
210	0xbd39c07e	-0.04534959
211	0x3c3ec476	0.01164352
212	0x3cd7ff63	0.026366895
213	0xbced8a2d	-0.028996551
214	0x3d1993d1	0.037494484
215	0xbd19a852	-0.03751404
216	0xbd2c6275	-0.042086083
217	0xbc2cd9ab	-0.010549943
218	0x3c88d1e6	0.01670165
219	0x3b0eba96	0.0021778694
220	0xbcf1c79e	-0.02951413
221	0xbbbdb79e	-0.005789711
222	0xbcfccffc	-0.030860893
223	0x3c970fb9	0.018440114
224	0x3caca745	0.021075854
225	0xbd3ce5d8	-0.046117634
226	0x3c4915aa	0.0122732315
227	0x3cdfcd84	0.027319677
228	0xbc692279	-0.01422941
229	0xbca57ce7	-0.02020116
230	0x3cb2d03c	0.02182781
231	0xbd0ebed2	-0.03484995
232	0xbd34783d	-0.04405998
233	0x3ca561c7	0.020188225
234	0xbc7b1b21	-0.015326292
235	0xbc8a98ab	-0.0169185
236	0x38b3145f	8.5391795e-05
237	0xbb91b744	-0.004446896
238	0xbcf8f3e1	-0.030389728
239	0xbd287b17	-0.041133013
240	0xbd1fd08b	-0.03901724
241	0xbc8f00c4	-0.01745642
242	0xbcf6e5f2	-0.030138943
243	0xbd406b97	-0.046977606
244	0x3d20bc35	0.03924199
245	0xbc85fffa	-0.01635741
246	0xbd4182ff	-0.04724407
247	0x3a5fdbfb	0.00085395545
248	0xbd0235c0	-0.03178954
249	0xbd18a64a	-0.03726796
250	0xbd39bfff	-0.045349117
251	0x3d16f1e6	0.036851786
252	0xbcaa7da9	-0.020811873
253	0xbcffb076	-0.031212073
254	0xbc80f25c	-0.015740566
255	0xbcbcdd52	-0.023054752

bias f4 [97]
0	0x3d01ed20	0.03172028
1	0x3ce42cd1	0.027853401
2	0x3a0250cf	0.0004971148
3	0xbce4ce20	-0.02793032
4	0xbd708daf	-0.05872887
5	0x3c671669	0.014104464
6	0xbd407e83	-0.04699565
7	0x3c96cb48	0.018407479
8	0x3d0616ed	0.032736707
9	0xbd081255	-0.033220608
10	0xbcecf298	-0.028924271
11	0x3cd42ad6	0.025899332
12	0xbb28c234	-0.002575052
13	0x3b3658bd	0.0027823888
14	0xbd1aa51e	-0.037755124
15	0xbcdf20df	-0.027237354
16	0x3c18af3f	0.009319126
17	0x3cac9b7f	0.02107024
18	0xbd20e0a2	-0.039276727
19	0xbd1bb548	-0.03801468
20	0xbcf1538e	-0.029458787
21	0x3ca51536	0.020151716
22	0x3bcad98f	0.006190486
23	0xbd23eee6	-0.040022753
24	0x3bedc11b	0.007255686
25	0x3cb2f413	0.0218449
26	0xbd116ab7	-0.03550216
27	0xbc179329	-0.009251394
28	0xbc804a29	-0.015660362
29	0x3bbf0012	0.005828866
30	0xbbb48abf	-0.005509704
31	0xbd06627d	-0.03280877
32	0xbdf436bb	-0.119245015
33	0xbc4bd3cb	-0.012440632
34	0xbb10a1fb	-0.0022069204
35	0xbc8f5fb3	-0.017501688
36	0x3ab84027	0.0014057205
37	0xbd4d488b	-0.05011801
38	0xbc722c4b	-0.014781068
39	0xbe0300a8	-0.12793219
40	0xbbba5646	-0.005686554
41	0xbdfce9b7	-0.12349265
42	0xbe0e6033	-0.13903885
43	0xbd305ff9	-0.043060277
44	0xbdd78892	-0.105240956
45	0xbd432bea	-0.0476493
46	0xbe1a0647	-0.15041457
47	0xbc6515cd	-0.0139822485
48	0xbdd2a8ad	-0.102860786
49	0xbce1b041	-0.027549865
50	0xbe16ba8e	-0.14719602
51	0xbe03040f	-0.12794517
52	0xbe1a9030	-0.15094066
53	0xbd8dead3	-0.06929555
54	0xbd4977d7	-0.049186554
55	0xbd19a280	-0.037508488
56	0xbd831838	-0.06401104
57	0xbc93b6d4	-0.018031515
58	0xbe16012f	-0.14648889
59	0xbd874a72	-0.06605996
60	0xbe08bb92	-0.13352802
61	0xbdc13350	-0.09433615
62	0xbdde7e57	-0.10863941
63	0xbe09bf4a	-0.13451877
64	0xbd736c05	-0.059429187
65	0xbe2d9439	-0.16951074
66	0xbe346aad	-0.17618819
67	0xbe3c2783	-0.18374448
68	0xbe1cdb37	-0.15317999
69	0xbe013b72	-0.12620333
70	0xbe0207c9	-0.12698282
71	0xbdf4ff33	-0.11962738
72	0xbdc2c1e3	-0.09509637
73	0xbe399ec1	-0.18126966
74	0xbe2b30e1	-0.16717865
75	0xbe090ee0	-0.1338458
76	0xbe030568	-0.12795031
77	0xbe31a0fc	-0.17346567
78	0xbde30893	-0.1108562
79	0xbe4d151a	-0.20027581
80	0xbe3acad0	-0.1824143
81	0xbe3865f7	-0.18007647
82	0xbe4a8c29	-0.1978003
83	0xbe1550fc	-0.14581674
84	0xbe4089fd	-0.18802638
85	0xbdefa103	-0.117006324
86	0xbe0f6852	-0.14004639
87	0xbe062f94	-0.13104087
88	0xbe3ed91b	-0.18637507
89	0xbe2bef7f	-0.1679058
90	0xbe5e93c1	-0.21736051
91	0xbe45226f	-0.19251417
92	0xbe612b49	-0.21989168
93	0xbe485979	-0.19565381
94	0xbe44b02e	-0.19207832
95	0xbe53aa7f	-0.20670508
96	0xbe3cdd6f	-0.18443845
