Models/srl-pt_xlmr-base/linear_layer.pt (torch, 265663 bytes, 2 tensors)

weight f4 [86, 768]
0	0xbc6089c8	-0.013704725
1	0x3c86771d	0.01641422
2	0xbc509088	-0.012729771
3	0x3d21e79b	0.039527517
4	0xbd102d27	-0.03519931
5	0xbc5c4d37	-0.013446144
6	0x3ccd80bb	0.025085798
7	0x3d16aeb2	0.036787696
8	0xbd3a534b	-0.04548959
9	0x3c837db1	0.016051145
10	0xbc49f4b3	-0.012326407
11	0x3cc660dc	0.024216108
12	0x3d26451c	0.04059325
13	0x3c291839	0.010320717
14	0xbc598fdc	-0.013278928
15	0xbb2be7dc	-0.0026230728
16	0x3cb15f58	0.021651909
17	0x3cb54040	0.022125363
18	0xbd2d8340	-0.042361498
19	0x3a328f98	0.0006811558
20	0x3cc49230	0.023995489
21	0x3cbd9f12	0.02314714
22	0xbd0b54c3	-0.034016382
23	0xbd2a3034	-0.041549876
24	0x3bf1fa59	0.00738458
25	0x3d251810	0.04030615
26	0xbd263a0d	-0.040582705
27	0xbc45a724	-0.012063775
28	0xbd162b19	-0.036662195
29	0x3c779f68	0.015113689
30	0xbab5c281	-0.0013867171
31	0xbd208994	-0.039193705
32	0xbc84ac65	-0.016195485
33	0x3cf14fa3	0.029456919
34	0xbd00510a	-0.031327285
35	0xbc88ffb4	-0.016723491
36	0x3babc63c	0.0052421372
37	0x3cd55376	0.026040774
38	0x3cfab8d6	0.030605715
39	0x3d18611b	0.037201982
40	0x3d0dca60	0.034616828
41	0xbcd1a1d1	-0.025589855
42	0x3cd14ee7	0.025550319
43	0x3c9310da	0.017952371
44	0xbce6a1f1	-0.028153392
45	0xbcfd7f13	-0.030944383
46	0x3cda06a4	0.026614495
47	0xbd0bf3c6	-0.034168027
48	0xbc4416ed	-0.011968357
49	0xba3f72a5	-0.0007303155
50	0xbcfbb378	-0.030725226
51	0x3d31b3b4	0.04338427
52	0xbcabe43f	-0.02098286
53	0x3c2ad150	0.010425881
54	0xbc54047e	-0.012940524
55	0x3cb97d8b	0.022642871
56	0xbd18f21b	-0.037340265
57	0xbd21c3cc	-0.039493367
58	0xbd15634a	-0.036471643
59	0x3bc3d04c	0.0059757587
60	0x3bd8010a	0.0065919207
61	0x3c3d6f84	0.011562232
62	0xbcd71c83	-0.026258713
63	0xbc51be2c	-0.012801688
64	0xbd20eedc	-0.039290294
65	0xbbcf8400	-0.0063328743
66	0x3d0f09aa	0.034921326
67	0xbd28fd01	-0.04125691
68	0x3d181163	0.037125956
69	0xbd0dbff7	-0.0346069
70	0x3d2a33ef	0.041553434
71	0xbcb960e5	-0.02262921
72	0xbc5cd3d1	-0.013478235
73	0x3b9b889b	0.0047465093
74	0x3be2d005	0.0069217705
75	0x3c9820d9	0.01857035
76	0x3cca577a	0.024699915
77	0xbd2de543	-0.04245497
78	0x3c05758b	0.0081457
79	0xbc6e5b2b	-0.014548103
80	0x3d26cbde	0.040721767
81	0x3ca8cc74	0.020605303
82	0x3bfcef39	0.0077189473
83	0x3cf0f064	0.029411502
84	0xbce2241f	-0.027605115
85	0xbd21696a	-0.03940717
86	0x3ca76939	0.020435916
87	0x3d1feae6	0.039042376
88	0xbbd79fb7	-0.006580319
89	0xbcdf9f31	-0.027297588
90	0x3cd1c763	0.02560777
91	0x3c8e8aae	0.017400112
92	0x3cc2eb99	0.023793982
93	0x3c76408d	0.015030039
94	0xbcdbb8d0	-0.026821524
95	0xbcab60b2	-0.020920131
96	0xbd0e7845	-0.034782667
97	0xbd2aa3da	-0.041660167
98	0xbc884531	-0.016634556
99	0x3c72a93e	0.014810858
100	0xbb8e3509	-0.0043398184
101	0x3bd59fea	0.0065193074
102	0x3cf03ffd	0.029327387
103	0xbc905ef3	-0.0176234
104	0xbcefafea	-0.029258687
105	0x3c38c782	0.011278035
106	0xbcbff718	-0.023433253
107	0x3d1f6909	0.03891853
108	0x3cb87ddb	0.02252095
109	0xbc2b22f4	-0.010445345
110	0xbcd23f19	-0.025664853
111	0xbc235d8b	-0.009971033
112	0xbcb4998c	-0.022045873
113	0xbd17c119	-0.037049387
114	0xbd09e7fc	-0.033668503
115	0xbd0eccf0	-0.034863412
116	0xbb28a908	-0.0025735516
117	0xbd18a66c	-0.037268087
118	0xbd0a9da7	-0.033841755
119	0xbc32f119	-0.01092174
120	0x3cce1f98	0.02516155
121	0xba881095	-0.0010380918
122	0xbcfe044f	-0.031007914
123	0xbc67da64	-0.0141511895
124	0xbd257b07	-0.04040053
125	0x3c94c86f	0.01816198
126	0xbc897df3	-0.01678369
127	0xbabbe18c	-0.0014334186
128	0x3d04e104	0.032441154
129	0x3c70387f	0.014661907
130	0x39787e5d	0.00023698197
131	0xbc049d6b	-0.008094172
132	0xbc6ce2bd	-0.0144583555
133	0xbb550fe8	-0.0032510702
134	0x3cc8b651	0.024500998
135	0x3d0b2ce2	0.03397835
136	0x3ca5c84c	0.02023711
137	0x3d0381ce	0.032106213
138	0x3b2bbf34	0.0026206495
139	0xbd2f2345	-0.042758245
140	0x3c287722	0.01028231
141	0x3d1328dc	0.03592764
142	0xbcf5f970	-0.030026168
143	0x3d0f9710	0.035056174
144	0xbcb93ebe	-0.022612926
145	0xbd2048c7	-0.039131906
146	0x3d0ad323	0.033892762
147	0x3c23ad0d	0.009989989
148	0xbd22f093	-0.03978021
149	0x3c46d9fe	0.012136934
150	0xbcd51a52	-0.026013527
151	0xbd2e8791	-0.042609755
152	0xbc342a79	-0.010996454
153	0xbc089ca7	-0.00833813
154	0xbd1cb721	-0.038260583
155	0xbc05a409	-0.008156785
156	0x3d186df5	0.03721424
157	0xbc475145	-0.012165372
158	0xbd27f852	-0.0410083
159	0xbb16a703	-0.002298773
160	0x3d06cfd3	0.03291304
161	0xbd06e6d0	-0.032934964
162	0x3d1388f2	0.036019273
163	0x3cb497ba	0.022045005
164	0x3cde9489	0.027170436
165	0xbd27d68c	-0.040976092
166	0x3ca53435	0.020166496
167	0x3cfa116a	0.030525882
168	0x3c02c31b	0.007981087
169	0xbd3082ee	-0.043093614
170	0xbd1b7e6b	-0.03796236
171	0xbc05f442	-0.008175911
172	0xbcad97e2	-0.021190587
173	0xbd25ac90	-0.04044777
174	0xbcbd99d6	-0.023144644
175	0xbce8a4ec	-0.028398953
176	0x3ce07121	0.027397694
177	0x3cb83a2f	0.022488682
178	0xb9b09f1f	-0.0003368789
179	0x3d246088	0.040131122
180	0x3d288023	0.041137826
181	0x3b3305b1	0.0027316625
182	0x3cbd1dd8	0.02308552
183	0x3cb066c2	0.021533374
184	0xbd06ccb4	-0.032910064
185	0x3baf5819	0.005351078
186	0xbc1cf14e	-0.009579016
187	0x3d1c4f5f	0.03816163
188	0x3d3cfdfa	0.04614065
189	0xbc68f49d	-0.014218477
190	0x3af77084	0.0018878137
191	0x3d03024a	0.031984605
192	0x3d13dd23	0.036099564
193	0xbcf989b0	-0.030461162
194	0x3c7da93c	0.015482243
195	0x3991ed71	0.00027833463
196	0x3cde35b4	0.027125217
197	0xbb7a431f	-0.003818698
198	0xbc9a6abb	-0.018849721
199	0x3d0c8927	0.034310486
200	0xbc19042d	-0.0093393745
201	0x3cbddb8f	0.023175983
202	0xbcce2637	-0.025164707
203	0x3c2f1399	0.010685825
204	0x395e2649	0.00021185832
205	0xb7f50506	-2.9208615e-05
206	0xbcba528a	-0.022744436
207	0x3c9f3bac	0.019437633
208	0x3c83dcaa	0.016096432
209	0x3c6e8b77	0.014559618
210	0xbb7a24ee	-0.0038168984
211	0xbcc2dcdf	-0.02378696
212	0x3d0fdfac	0.03512542
213	0xba936049	-0.0011243905
214	0xbbb68993	-0.0055705993
215	0x3d086133	0.03329582
216	0xbc89c554	-0.016817726
217	0x3d181b41	0.037135366
218	0xbd15c186	-0.03656151
219	0xbcc223fc	-0.0236988
220	0xbd1045d7	-0.035222854
221	0x3a394fce	0.0007069082
222	0x3c5a841e	0.013337163
223	0x3c21765e	0.009854881
224	0xbcf9510a	-0.03043415
225	0xbcc21d64	-0.023695655
226	0x3c21e555	0.009881337
227	0x3ce82366	0.028337192
228	0x3d061b67	0.032740977
229	0xbc2ca61f	-0.010537653
230	0xbcfe7990	-0.031063825
231	0x3ccf511e	0.025307234
232	0xbccb8716	-0.024844687
233	0xbc18650a	-0.009301433
234	0xbb881d9f	-0.0041539217
235	0x3cd547e8	0.026035264
236	0xbd2b43fa	-0.041812874
237	0x3d072ae4	0.032999888
238	0x3cd8596b	0.026409825
239	0x3ce62ce5	0.02809758
240	0xbbaf83b5	-0.005356277
241	0x3cab8a38	0.020939931
242	0xbd071d1b	-0.03298674
243	0x3b9a3d57	0.0047070193
244	0x3ce249bf	0.027623056
245	0xbcaf3eef	-0.021392314
246	0xbd053f69	-0.032531176
247	0x3cd751ea	0.026284177
248	0x3cd63611	0.026148828
249	0xbc69668e	-0.014245642
250	0xbc9e216b	-0.019303044
251	0xbd07aee6	-0.03312578
252	0x3d0ffffd	0.03515624
253	0xbbec35b8	-0.007208552
254	0xbc13dfff	-0.009025573
255	0x3d1cf164	0.038316146

bias f4 [86]
0	0xbbe0787e	-0.0068503013
1	0x3ce8097a	0.028324831
2	0x3c577daf	0.013152524
3	0xbcb530b5	-0.022117952
4	0xbd42e0f6	-0.04757782
5	0x3cdfe2b6	0.027329784
6	0xbd2390bd	-0.039932955
7	0x3c614f61	0.013751836
8	0xbd06d4ba	-0.032917716
9	0x3af6e8c9	0.0018837686
10	0xbc56c4e1	-0.013108463
11	0x3ccf6053	0.025314486
12	0xbcb58c8d	-0.022161746
13	0xbb6e5fe3	-0.003637307
14	0xbba691ce	-0.0050832992
15	0xbb8ec387	-0.004356805
16	0xbb899e8f	-0.00419981
17	0x3c33029a	0.010925913
18	0xbcbdf898	-0.023189828
19	0xbd15a2ae	-0.036532097
20	0x3a183da0	0.00058075227
21	0xbc0c4d41	-0.008563341
22	0xbc832c09	-0.016012209
23	0x3c2ae73f	0.01043111
24	0x3bf245ac	0.0073935594
25	0xbcc85331	-0.024453731
26	0x3c64e9d4	0.013971765
27	0x3be21e0e	0.0069005555
28	0x3c4feb20	0.0126903355
29	0xbc94c759	-0.018161463
30	0xbd10c8b0	-0.03534764
31	0xbcf983e5	-0.0304584
32	0xbc0b697d	-0.008509037
33	0x3caa49e6	0.02078719
34	0x3c32c521	0.010911257
35	0x3ac801ac	0.0015259287
36	0x3bb68242	0.005569727
37	0x3bda939a	0.0066704275
38	0xbd12195e	-0.035668723
39	0xbbdb00ac	-0.0066834297
40	0xbb033263	-0.0020019046
41	0xbd21f176	-0.039536916
42	0x3c88a195	0.01667861
43	0xbc6bd25a	-0.014393413
44	0xbba15ec4	-0.004924627
45	0x3c83c9bb	0.016087404
46	0xbb068113	-0.0020523712
47	0xbac6e310	-0.0015173871
48	0x3c64c5db	0.013963188
49	0xbd3372fd	-0.043810833
50	0x3bbaa438	0.005695846
51	0xbd535968	-0.051598936
52	0xbd4632ad	-0.048388172
53	0xbd356241	-0.044283155
54	0x3bf03788	0.0073308386
55	0xbd289e38	-0.041166514
56	0xbd1667e8	-0.036720186
57	0x3bbdb977	0.0057899314
58	0x3b00af8d	0.0019635886
59	0x3b4288e5	0.0029683646
60	0x3c6582b6	0.014008215
61	0xbd5acb97	-0.053416815
62	0x39ffc86d	0.0004878672
63	0xbcae6409	-0.021287935
64	0x3c33a6ef	0.010965093
65	0xbd4b645e	-0.049656264
66	0xbd21c6cc	-0.039496228
67	0xbd52ef50	-0.051497757
68	0xbca0a2f6	-0.019608956
69	0xbcdafa92	-0.02673081
70	0xbd434d3f	-0.04768109
71	0xbd834dce	-0.064113244
72	0xbd41630e	-0.047213607
73	0xbbcc9fe6	-0.0062446473
74	0xbd2af456	-0.041736923
75	0xbd98fd8b	-0.074702345
76	0xbcac1e4f	-0.021010546
77	0xbd0e5a68	-0.034754187
78	0xbd8fe87b	-0.07026764
79	0xbcc886e9	-0.024478393
80	0xbc4eefd8	-0.012630425
81	0xbd1de528	-0.03854862
82	0xbd8eadcf	-0.06966745
83	0xbdd831d0	-0.10556376
84	0xbd992932	-0.074785605
85	0xbd9f9715	-0.077924885
