Models/srl-pt_mbert-base/linear_layer.pt (torch, 265663 bytes, 2 tensors)

weight f4 [86, 768]
-0.041246098 -0.031446837 0.035028744 0.018476006 0.026175413 -0.020021062 0.0019432348 0.013583305
-0.031773116 -0.032043673 0.041063752 0.019673409 -0.003951279 -0.02078891 -0.036286023 -0.033374377
0.008845599 -0.03007277 0.018704284 -0.04424077 0.02957554 0.01600119 0.042419817 -0.035616964
0.036111005 0.016313981 0.02034476 0.015004484 -0.01541005 -0.011336077 0.045294493 0.04593733
-0.006312311 0.018843498 -0.0040853675 -0.01654902 0.036314815 -0.0030649132 0.005077667 0.01206851
0.022529824 0.008797106 -0.028903984 0.03286359 -0.0020831826 -0.010306297 0.03971032 0.022194833
0.04110269 0.030331895 -0.008018798 0.023546696 -0.029410077 0.035738807 -0.027088778 -0.03249475
0.032973412 -0.009455575 -0.0011613811 0.004170749 -0.00336839 0.023677576 0.041290052 -0.035778712
-0.038764205 0.03237143 -0.017152846 0.018711945 0.04235534 0.025505435 0.021028738 -0.043269105
0.024465034 0.026827803 0.026633414 0.028221369 -0.026055317 -0.042000275 0.012708366 -0.044146135
0.044509582 -0.011362777 -0.04344804 -0.04459188 -0.0057146032 -0.044460166 -0.008906484 -0.0055164527
-0.01256529 -0.002373245 0.022079369 -0.014277239 -0.03332279 0.023055572 -0.028475953 -0.005445586
-0.0047373753 0.014899573 0.024408648 -0.021855056 -0.0062497593 0.010499604 0.037821446 -0.0025858756
0.032692242 -0.027906837 0.008968993 -0.012984887 -0.033876464 -0.009548224 0.026571635 -0.021215666
0.004331428 0.0075579607 -0.033716146 0.019384768 0.04035099 0.013179769 0.008988109 0.013127923
0.008108793 -0.039977085 -0.010971544 -0.022344658 -0.025709486 -0.024743503 -0.009233303 -0.02361069
0.012371591 -0.015642568 0.012476627 -0.02681772 0.036777023 0.0060731093 -0.013997953 -0.023644168
0.04765563 -0.045647282 0.013075294 -0.010468149 0.03653978 -0.03371642 -0.0026467005 0.021463927
0.01748672 0.009052175 -0.04216422 -0.010241824 -0.0039010593 -0.01768186 0.0062428275 0.012973599
-0.00537241 -0.041978788 -0.0148062585 0.031656682 0.0046822676 -0.029355884 0.03142228 0.017543534
0.0288439 -0.0160627 -0.029230671 0.003811442 -0.03161266 0.023183608 -0.014940587 -0.0360145
-0.030197987 0.03840517 0.005854829 -0.0044295765 0.0019277962 0.025148463 -0.027946984 -0.026190883
-0.0043501756 0.012906716 -0.029693741 0.035244133 -0.022654166 -0.006004722 -0.020372186 0.03232818
-0.022873987 0.0053973985 -0.042525668 -0.024744147 -0.039112035 0.0067595635 0.010435323 0.020905556
0.032023482 -0.03591044 0.038568046 0.02971575 -0.02638513 -0.03448301 0.030435387 0.032731716
-0.034755293 0.008218342 -0.0057645375 0.030356022 -0.02192879 -0.017181503 -0.00154414 -0.014392702
0.033539318 -0.0093346825 -0.042918988 0.009163606 0.032581467 -0.027447177 0.038319472 -0.03542639
-0.043464713 -0.0041501136 0.017340431 0.0034317987 -0.029184008 -0.005696549 -0.032327347 0.017286258
0.020859066 -0.044205043 0.0075169327 0.0171693 -0.015509381 -0.024396226 0.017942574 -0.032136317
-0.042714376 0.018499784 -0.0085384445 -0.011801197 0.0037839545 0.0034040287 -0.023243662 -0.041961662
-0.03727641 -0.021999145 -0.033154003 -0.047682423 0.039227705 -0.012348148 -0.04417715 0.003920317
-0.03103542 -0.026883975 -0.045078672 0.037046153 -0.018610679 -0.035077248 -0.018168889 -0.018616246
00000000: abf1 28bd 66ce 00bd 4d7a 0f3d fe5a 973c
00000010: d26d d63c 3603 a4bc 24b4 fe3a 838c 5e3c
00000020: 8724 02bd 3a40 03bd 7732 283d 212a a13c
00000030: bb79 81bb 814d aabc a7a0 14bd 92b3 08bd
00000040: 22ed 103c 2b5b f6bc ba39 993c cf35 35bd
00000050: 6748 f23c ed14 833c 67c0 2d3d 18e3 11bd
00000060: 22e9 133d e6a4 853c 0eaa a63c 5ed5 753c
00000070: 6f7a 7cbc f4ba 39bc b886 393d c828 3c3d
00000080: 81d7 cebb ae5d 9a3c 8cde 85bb cf91 87bc
00000090: d8be 143d b6dc 48bb 8f62 a63b 00bb 453c
000000a0: 7790 b83c bd21 103c 0cc8 ecbc f99b 063d
000000b0: 0186 08bb bedb 28bc 4aa7 223d f0d1 b53c
000000c0: 4b5b 283d 987a f83c 4761 03bc 00e5 c03c
000000d0: 67ed f0bc db62 123d 49e9 ddbc 3719 05bd
000000e0: 210f 073d 8eeb 1abc 7c39 98ba c7aa 883b
000000f0: 35c0 5cbb 7af7 c13c c21f 293d b38c 12bd
00000100: 37c7 1ebd e897 043d 2084 8cbc cb49 993c
00000110: cb7c 2d3d c6f0 d03c 7644 ac3c f23a 31bd
00000120: e56a c83c fbc5 db3c 512e da3c 8030 e73c
00000130: f671 d5bc 7b08 2cbd c036 503c 94d2 34bd
00000140: ae4f 363d f12a 3abc 92f6 31bd faa5 36bd
00000150: 9141 bbbb dd1b 36bd 80ec 11bc 5cc3 b4bb
00000160: a5de 4dbc 7288 1bbb cbdf b43c 15eb 69bc
00000170: 7a7d 08bd 0adf bc3c 6746 e9bc e370 b2bb
00000180: fc3b 9bbb 571d 743c a5f4 c73c 6009 b3bc
00000190: c8ca ccbb 8806 2c3c a9ea 1a3d cb77 29bb
000001a0: 4de8 053d e19c e4bc aff2 123c 90be 54bc
000001b0: 0cc2 0abd 2770 1cbc c2ac d93c 7acc adbc
000001c0: a7ee 8d3b c5a8 f73b f119 0abd cecc 9e3c
000001d0: 1447 253d f5ef 573c dd42 133c 8016 573c
000001e0: beda 043c 03bf 23bd fec1 33bc 250c b7bc
000001f0: b39c d2bc e3b2 cabc 4847 17bc 356b c1bc
00000200: 37b2 4a3c d824 80bc c46a 4c3c d6b0 dbbc
00000210: 81a3 163d ef00 c73b ac57 65bc 6ab1 c1bc
00000220: 8d32 433d a5f8 3abd c239 563c 9982 2bbc
00000230: bdaa 153d 3b1a 0abd 4474 2dbb 1ed5 af3c
00000240: 4f40 8f3c 934f 143c 64b4 2cbd 53cd 27bc
00000250: eaa8 7fbb 8cd9 90bc a290 cc3b 388f 543c
00000260: 0b0b b0bb f3f1 2bbd f395 72bc 70aa 013d
00000270: b56d 993b c07b f0bc a6b4 003d 75b7 8f3c
00000280: 0b4a ec3c ec95 83bc 2975 efbc 63c9 793b
00000290: 477c 01bd 8deb bd3c 5dc9 74bc f183 13bd
000002a0: c561 f7bc bd4e 1d3d ded9 bf3b fb25 91bb
000002b0: 1bae fc3a 2604 ce3c 13f1 e4bc 438e d6bc
000002c0: eb8b 8ebb b176 533c 4a40 f3bc 275c 103d
000002d0: 3b95 b9bc 42c3 c4bb 92e3 a6bc 8e6a 043d
000002e0: 3a62 bbbc a9dc b03b 652f 2ebd 3db4 cabc
000002f0: f133 20bd 547f dd3b ebf8 2a3c 2142 ab3c
00000300: 0e2b 033d d316 13bd 87f9 1d3d 726e f33c
00000310: a125 d8bc 0f3e 0dbd a253 f93c b111 063d
00000320: 915b 0ebd 3aa6 063c 72e4 bcbb 31ad f83c
00000330: 01a4 b3bc 39c0 8cbc be64 caba 5ecf 6bbc
00000340: 8660 093d 7ff0 18bc d2cb 2fbd f322 163c
00000350: 2574 053d e7d8 e0bc e1f4 1c3d 431b 11bd
00000360: 0e08 32bd adfd 87bb 850d 8e3c 07e8 603b
00000370: 4d13 efbc 1eaa babb ae69 04bd e99b 8d3c
00000380: a2e0 aa3c 5910 35bd 9a50 f63b a2a6 8c3c
00000390: 0f1b 7ebc 98da c7bc 4efc 923c 5fa1 03bd
000003a0: 45f5 2ebd dc8c 973c d5e4 0bbc cf59 41bc
000003b0: 39fc 773b 2016 5f3b 7e69 bebc fedf 2bbd
000003c0: 26af 18bd 8d37 b4bc 7ecc 07bd a54e 43bd
000003d0: 3bad 203d e34f 4abc 19f3 34bd 0176 803b
000003e0: fe3d febc c83b dcbc 6aa4 38bd b5bd 173d
000003f0: 6c75 98bc 29ad 0fbd ecd6 94bc 1981 98bc

bias f4 [86]
0.02852222 0.023498587 0.02029634 -0.0137001155 -0.05292591 -0.043259073 0.017222898 -0.028056094
-0.025206124 0.014269663 0.01770352 0.024170574 -0.0011166187 -0.012925435 -0.011182439 0.030440973
0.009188201 -0.01721551 0.018656265 0.008368565 -0.01775152 -0.00950201 -0.015784489 -0.01835115
-0.01429088 0.033529323 0.0027185956 -0.032993264 -0.024583802 0.008168926 -0.004586294 -0.004709156
-0.00027647516 0.0038408756 0.0006789224 -0.0075428328 -0.03400556 -0.01094561 -0.02132999 -0.015084004
-0.0152072655 0.0033139272 -0.0033099656 -0.0042792205 -0.032754045 -0.035939857 -0.0054380842 -0.022286944
-0.0019237965 -0.04482585 0.0020536133 -0.0049222684 0.006648203 -0.0072314893 0.009866558 0.015885295
-0.026327599 -0.0153790815 -0.034543313 -0.03508361 -0.0057687117 -0.035526723 -0.031178571 -0.0006827534
-0.055297405 -0.04239731 0.015383899 -0.030270707 -0.042738207 -0.058907438 -0.054644074 -0.06831179
-0.06990217 -0.019806297 -0.054578654 -0.036087867 -0.085185684 -0.07072793 -0.094793655 -0.06577387
-0.047994047 -0.09317439 -0.07439322 -0.053039063 -0.046078432 -0.106012374
00000000: 6ea7 e93c 1c80 c03c 8344 a63c 7376 60bc
00000010: d7c8 58bd 6d30 31bd 0917 8d3c e5d5 e5bc
00000020: 137d cebc 4ecb 693c f906 913c 5e01 c63c
00000030: 825b 92ba 34c5 53bc 8c36 37bc 595f f93c
00000040: 1c8a 163c 8b07 8dbc 06d5 983c 4e1c 093c
00000050: a36b 91bc 52ae 1bbc 794e 81bc 2755 96bc
00000060: 4c24 6abc 0b56 093d 772a 323b f223 07bd
00000070: f863 c9bc f6d6 053c 9f48 96bb 444f 9abb
00000080: def3 90b9 33b7 7b3b b6f9 313a de29 f7bb
00000090: 6a49 0bbd 3755 33bc 3bbc aebc e622 77bc
000000a0: e527 79bc 792e 593b 02ec 58bb b438 8cbb
000000b0: 1b29 06bd ac35 13bd f531 b2bb 1c93 b6bc
000000c0: e627 fcba 4f9b 37bd ea95 063b fb4a a1bb
000000d0: 2bd9 d93b 21f6 ecbb 58a7 213c e121 823c
000000e0: faac d7bc 8bf8 7bbc 4a7d 0dbd d5b3 0fbd
000000f0: 7607 bdbb 7884 11bd 346a ffbc cefa 32ba
00000100: 887f 62bd cda8 2dbd c00c 7c3c 46fa f7bc
00000110: 420e 2fbd ed48 71bd 77d2 5fbd 0de7 8bbd
00000120: de28 8fbd d140 a2bc de8d 5fbd dfd0 13bd
00000130: d575 aebd ced9 90bd 2d23 c2bd 73b4 86bd
00000140: 6895 44bd 37d2 bebd 795b 98bd 7d3f 59bd
00000150: bdbc 3cbd 041d d9bd
