Models/srl-en_mbert-base/linear_layer.pt (torch_old, 298894 bytes, 2 tensors)

weight f4 [97, 768]
0	0xbd234d58	-0.039868683
1	0xbcfd2ba2	-0.030904595
2	0x3d193895	0.037407476
3	0x3c7d006a	0.015441993
4	0x3c9050ee	0.017616715
5	0xbca6c8ed	-0.02035948
6	0x3ba82945	0.005131873
7	0x3c7595b0	0.014989302
8	0xbd03399d	-0.032037366
9	0xbd04ffaa	-0.032470383
10	0x3d1f6f29	0.03892437
11	0x3c9d1ca7	0.019178702
12	0xbc5e0d7c	-0.01355302
13	0xbca280b2	-0.019836757
14	0xbd060dfe	-0.032728188
15	0xbd08092a	-0.033211865
16	0x3bbd5242	0.005777628
17	0xbcd93de8	-0.026518777
18	0x3c894c52	0.016760025
19	0xbd3063cf	-0.043063935
20	0x3cd1d3f9	0.025613772
21	0x3c8fabae	0.017537918
22	0x3d330deb	0.043714445
23	0xbd1fb3d4	-0.038989857
24	0x3d0f19c8	0.034936696
25	0x3c80c156	0.01571719
26	0x3c9ec782	0.019382242
27	0x3c846e49	0.01616587
28	0xbc416112	-0.0118029285
29	0xbc5fda10	-0.01366283
30	0x3d33b59d	0.04387437
31	0x3d248aad	0.040171314
32	0xbc00484e	-0.007829739
33	0x3c984dd5	0.0185918
34	0xbb8013cf	-0.0039086114
35	0xbc7ef067	-0.015560246
36	0x3d12827f	0.035768982
37	0xbb8c59c9	-0.004283164
38	0x3bfab9c4	0.0076515395
39	0x3c0ce48a	0.00859941
40	0x3cbdcff5	0.02317045
41	0xb885b6d3	-6.375988e-05
42	0xbcde693e	-0.027149793
43	0x3cd3a292	0.025834356
44	0x3a137a6d	0.0005625848
45	0xbc4be241	-0.01244408
46	0x3d20be7d	0.039244164
47	0x3c9598a8	0.018261269
48	0x3d155ab7	0.036463466
49	0x3cf80ab7	0.030278547
50	0xbbed6d4e	-0.007245696
51	0x3ccf83d5	0.025331417
52	0xbcf6798c	-0.030087255
53	0x3cf1dd16	0.029524367
54	0xbce63299	-0.028100299
55	0xbcc84878	-0.024448618
56	0x3d09d74b	0.033652585
57	0xbc203aee	-0.009779675
58	0x3b51e7cd	0.0032029033
59	0x3b314864	0.0027051205
60	0xbb415fe9	-0.002950663
61	0x3c905194	0.017617024
62	0x3d2d1e24	0.042265072
63	0xbd0f1c54	-0.034939125
64	0xbd201fd5	-0.039092857
65	0x3cd37065	0.02581043
66	0xbcbbe34f	-0.022935538
67	0x3c682650	0.014169291
68	0x3d1f8e3d	0.03895401
69	0x3ca40d44	0.020025857
70	0x3cb0c0df	0.021576343
71	0xbd236d3b	-0.039899092
72	0x3cd29093	0.025703704
73	0x3cdd186d	0.026989186
74	0x3ca995c2	0.020701293
75	0x3cf466b5	0.02983413
76	0xbce43cbe	-0.027860995
77	0xbd273985	-0.04082634
78	0x3c2030c7	0.009777254
79	0xbd23653c	-0.039891466
80	0x3d2254bc	0.03963159
81	0xbc4cccec	-0.012500029
82	0xbd2184af	-0.039433178
83	0xbd2e9ef2	-0.04263205
84	0x3b221996	0.0024734489
85	0xbd221b80	-0.039577007
86	0xbc267d13	-0.010161656
87	0xbb942275	-0.004520709
88	0xbc4f040c	-0.012635242
89	0xbb32d842	-0.0027289544
90	0x3cb7d424	0.022440024
91	0xbc90fa56	-0.017697494
92	0xbd0574d8	-0.032582134
93	0x3ca6dd90	0.020369321
94	0xbcf4dd9f	-0.029890833
95	0xbbdce1bf	-0.006740778
96	0xbb1005b2	-0.002197605
97	0x3c1c1252	0.009525852
98	0x3c95726a	0.018243033
99	0xbc8e0cb2	-0.017340038
100	0xbc0fe2cc	-0.0087821
101	0x3be51dcb	0.006992077
102	0x3d134ace	0.03596001
103	0xbaa8ed7a	-0.0012888156
104	0x3d011954	0.031518295
105	0xbce797b4	-0.02827058
106	0x3bda9716	0.006670843
107	0xbc361e26	-0.011115586
108	0xbd0a6746	-0.033789895
109	0x38916118	6.932224e-05
110	0x3cd64cd9	0.02615969
111	0xbca218e3	-0.019787258
112	0x3b6f5f29	0.0036525226
113	0x3c047798	0.008085154
114	0xbcda4206	-0.02664281
115	0x3ca4b91e	0.020107802
116	0x3d2b9898	0.04189357
117	0x3c2f7afe	0.010710476
118	0x3bfde38b	0.0077480725
119	0x3c0c511c	0.00856426
120	0x3bc2eae0	0.0059484094
121	0xbd2829c4	-0.041055456
122	0xbc2652cd	-0.010151577
123	0xbcafb401	-0.021448137
124	0xbca38f32	-0.019965742
125	0xbcc70ed5	-0.024299065
126	0xbc4f11b9	-0.012638503
127	0xbca1a31c	-0.019731097
128	0x3c6dfe51	0.014525966
129	0xbc534056	-0.012893757
130	0x3c50ec89	0.012751707
131	0xbccb09d2	-0.024784956
132	0x3d168234	0.036745265
133	0x3b2e48ce	0.0026593688
134	0xbc8a97f5	-0.016918162
135	0xbcb62253	-0.022233164
136	0x3d38ba83	0.045099746
137	0xbd364cd6	-0.04450687
138	0x3c62a20f	0.013832583
139	0xbc04b593	-0.008099931
140	0x3d133516	0.0359393
141	0xbcf263d2	-0.029588614
142	0x3b7effcd	0.0038909793
143	0x3c98913b	0.018623939
144	0x3c86d505	0.016458998
145	0x3bd40dea	0.0064713852
146	0xbd3c75ea	-0.04601089
147	0xbc0406a0	-0.00805822
148	0xbbecc874	-0.0072260443
149	0xbc98ce5b	-0.018653085
150	0x3c0da413	0.008645075
151	0x3c7c0d30	0.0153840035
152	0xba78904e	-0.00094819523
153	0xbd1cda12	-0.038293906
154	0xbc833a03	-0.016018873
155	0x3cfe71f5	0.031060198
156	0x3b4e1951	0.0031448195
157	0xbcf95a7c	-0.030438654
158	0x3cf9b4b0	0.030481666
159	0x3c9998fd	0.018749708
160	0x3ce9b3ee	0.02852818
161	0xbc75714e	-0.014980627
162	0xbce8c730	-0.028415293
163	0x3c1be06e	0.009513957
164	0xbcededc7	-0.029044045
165	0x3cb3999e	0.021923836
166	0xbc5ed931	-0.013601587
167	0xbd11a03e	-0.03555321
168	0xbcf522dc	-0.029923849
169	0x3d1aad20	0.03776276
170	0x3be3e1e8	0.0069544204
171	0xbbd6cff0	-0.00655555
172	0x3b946c69	0.004529525
173	0x3ce46c90	0.027883798
174	0xbcb613a7	-0.022226168
175	0xbcbfcd25	-0.02341325
176	0x3ab43d6b	0.0013751214
177	0x3c785e10	0.015159145
178	0xbce9af95	-0.028526107
179	0x3d044598	0.032292932
180	0xbcd1c138	-0.02560483
181	0xbba6ecea	-0.0050941603
182	0xbbfe8df3	-0.0077683865
183	0x3d08365a	0.03325496
184	0xbc86977f	-0.01642966
185	0x3c210069	0.009826758
186	0xbd2bd115	-0.041947443
187	0xbcae220e	-0.021256473
188	0xbd18d2f5	-0.03731056
189	0x3b3ba163	0.002863013
190	0x3c0740bf	0.008255183
191	0x3c89fffd	0.016845698
192	0x3ce21631	0.027598472
193	0xbd0c28c4	-0.034218565
194	0x3d1e77ca	0.03868846
195	0x3cf0f322	0.02941281
196	0xbcca44df	-0.024691043
197	0xbd0b6aba	-0.03403733
198	0x3ce709ab	0.028202852
199	0x3ce15d26	0.027510237
200	0xbd0adfa0	-0.03390467
201	0x3bb2391f	0.0054389383
202	0xbbf4e6d7	-0.0074738073
203	0x3ce165df	0.027514396
204	0xbcbcdab7	-0.02305351
205	0xbc5aecf9	-0.013362163
206	0x3b8a756b	0.004225423
207	0xbc74da58	-0.014944635
208	0x3d0baed5	0.03410228
209	0xbba0952e	-0.004900596
210	0xbd33381f	-0.043754693
211	0x3be61347	0.007021341
212	0x3cbebd30	0.023283571
213	0xbcdaa803	-0.026691442
214	0x3d116435	0.035495955
215	0xbd12043c	-0.03564857
216	0xbd285034	-0.041092113
217	0xbbc2497a	-0.0059291692
218	0x3c87ea24	0.01659114
219	0x3b950129	0.0045472574
220	0xbcd7e358	-0.026353523
221	0xbbf7928c	-0.0075553115
222	0xbce0d16e	-0.027443614
223	0x3c608c0e	0.013705267
224	0x3c9b0d84	0.018927343
225	0xbd2e27e7	-0.042518523
226	0x3bf04a2e	0.0073330617
227	0x3cbc3207	0.022973074
228	0xbc45e4c7	-0.012078471
229	0xbcb4acfa	-0.022055138
230	0x3c90ffad	0.01770004
231	0xbd010d8d	-0.031507064
232	0xbd3116b5	-0.043234546
233	0x3c95c1d2	0.018280897
234	0xbc5e920c	-0.013584625
235	0xbc2c3da7	-0.010512746
236	0xbae005f0	-0.0017091613
237	0xbb6b4b72	-0.0035903123
238	0xbcd7af92	-0.026328836
239	0xbd18558d	-0.037190963
240	0xbd1877b2	-0.037223525
241	0xbc51f4ce	-0.012814714
242	0xbcf08648	-0.029360905
243	0xbd3347c5	-0.043769617
244	0x3d140a36	0.03614255
245	0xbc7653bf	-0.015034615
246	0xbd35bf25	-0.044371743
247	0xbb5a69bf	-0.003332719
248	0xbcf5b99b	-0.02999573
249	0xbd0006ee	-0.03125661
250	0xbd28c005	-0.04119875
251	0x3d0f6e23	0.035017144
252	0xbc9a090b	-0.01880314
253	0xbd05ae73	-0.03263707
254	0xbc7d376b	-0.015455107
255	0xbc881ac4	-0.016614325

bias f4 [97]
0	0x3ccf5507	0.025309099
1	0x3cdd66ea	0.027026612
2	0x3a9383d4	0.0011254498
3	0xbce1435c	-0.02749794
4	0xbd24e753	-0.04025967
5	0x3c77d1cd	0.015125704
6	0xbce7cf9f	-0.028297244
7	0x3ca35a15	0.019940415
8	0x3d09372f	0.033499893
9	0xbcf98514	-0.030458964
10	0xbcef8b1f	-0.029241143
11	0x3cf08a33	0.029362774
12	0xbb6a5d58	-0.0035761204
13	0x3ba3c2d4	0.0049975906
14	0xbd0ca775	-0.034339387
15	0xbcbb3a1d	-0.022854859
16	0x3c2ce6b8	0.0105530545
17	0x3cb5ead1	0.022206696
18	0xbd1890dc	-0.037247524
19	0xbd0e2484	-0.034702793
20	0xbcd6257f	-0.026140926
21	0x3cc21030	0.02368936
22	0x3c315783	0.010824087
23	0xbd115934	-0.03548546
24	0x3c29fede	0.0103757065
25	0x3cc89a66	0.024487685
26	0xbcd3fe1f	-0.02587801
27	0xbbebc2ee	-0.0071948683
28	0xbc76c94c	-0.015062641
29	0x3bd7a2d2	0.006580689
30	0xbabf5c7e	-0.0014599708
31	0xbcc83d34	-0.024443246
32	0xbdfee6a0	-0.12446332
33	0xbc1f5e50	-0.009727076
34	0x3afa9b18	0.0019119708
35	0xbc6df8dd	-0.014524666
36	0x3ba8b216	0.0051481826
37	0xbd364462	-0.04449881
38	0xbbcb4663	-0.006203459
39	0xbe08afc5	-0.13348301
40	0x3b422cd2	0.0029628766
41	0xbe01d065	-0.12677152
42	0xbe0f8831	-0.14016797
43	0xbd1d3008	-0.038375884
44	0xbdd52a42	-0.10408451
45	0xbd3b10cb	-0.045670312
46	0xbe199793	-0.14999227
47	0xbc0de6ca	-0.008660981
48	0xbdd5e402	-0.1044388
49	0xbc9dcb3a	-0.019261945
50	0xbe158f24	-0.14605385
51	0xbe049e39	-0.12950982
52	0xbe20d9a0	-0.15708017
53	0xbd83bd0d	-0.06432543
54	0xbd27b9ea	-0.040948786
55	0xbcb9266f	-0.022601334
56	0xbd69f888	-0.057121783
57	0xbb42032f	-0.0029603948
58	0xbe17154c	-0.14754218
59	0xbd7502ef	-0.05981725
60	0xbe031ad9	-0.1280321
61	0xbdb77c95	-0.08959309
62	0xbdd3e89f	-0.10347103
63	0xbe0ea5c4	-0.13930422
64	0xbd61bf6b	-0.05511419
65	0xbe2c6ee5	-0.16839178
66	0xbe342fa6	-0.17596301
67	0xbe33d96f	-0.17563413
68	0xbe0edd23	-0.13951544
69	0xbdf461e0	-0.11932731
70	0xbde7868c	-0.1130496
71	0xbdcfc3cc	-0.10144767
72	0xbdb3ec6e	-0.0878533
73	0xbe29902b	-0.16558902
74	0xbe29c8e5	-0.16580541
75	0xbdd172a1	-0.10226942
76	0xbde5f04b	-0.11227473
77	0xbe2ad473	-0.16682605
78	0xbd77a925	-0.060464043
79	0xbe380c2f	-0.17973398
80	0xbe29026a	-0.16504827
81	0xbdfb99ea	-0.12285216
82	0xbe2a6d67	-0.16643296
83	0xbe0901e9	-0.13379635
84	0xbe2118d2	-0.15732124
85	0xbdb34aa8	-0.08754474
86	0xbd92a0de	-0.07159589
87	0xbd743b63	-0.059626948
88	0xbe03209e	-0.12805411
89	0xbde0f17c	-0.109835595
90	0xbe246c6d	-0.16056986
91	0xbe08ce09	-0.13359846
92	0xbe25a73e	-0.16177079
93	0xbe0e1747	-0.13876067
94	0xbe09bd45	-0.13451107
95	0xbe18bc4d	-0.14915581
96	0xbe01f2f8	-0.12690341
