Models/ud_srl-enpt_xlmr-large/linear_layer.pt (torch_old, 398222 bytes, 2 tensors)

weight f4 [97, 1024]
-0.023861617 -0.011347403 0.022296911 -0.0057302825 0.0010944346 -0.002428644 -0.002192781 0.014357601
-0.0034947228 -0.011352931 -0.01367511 0.021809904 -0.021457037 0.009857184 -0.017112982 -0.0077466513
0.006856688 0.023248294 0.022471271 0.0015650019 0.008105002 0.0128075825 0.02164354 -0.004839658
0.0046840245 -0.012714631 -0.016256565 0.0060957368 -0.0009794218 -0.020386698 -0.022880957 -0.022252504
0.007390593 0.0023821117 0.029658193 -0.007321975 0.010814434 -0.010124249 0.0061395816 0.012741941
-0.022618428 0.027465835 -0.02375376 0.027218353 0.023837859 0.02968506 0.016220504 0.0034590496
-0.024339696 0.021313068 -0.005729872 -0.016720535 -0.02428291 0.00941659 0.024043467 0.020532485
0.00617643 -0.015453589 0.017770555 -0.008219796 -0.023310846 0.021295266 -0.011751675 0.020459287
-0.029428272 0.0147401085 0.002159126 -0.025354102 0.0025646973 -0.028186534 -0.020723153 0.010219576
-0.0038064453 -0.02592356 -0.021408115 -0.021819439 0.018591525 0.009253734 -0.028259374 0.0034265423
0.0112107275 -0.009693167 0.012269127 0.022729415 0.017520407 0.02194988 -0.03110314 0.0106452275
0.013160029 0.0030804416 0.009530823 0.01778673 -0.026210485 -0.0149523895 0.026873117 0.0029839124
0.016387805 -0.025388202 0.019706128 0.0028991266 0.0057066027 -0.030885912 0.014256689 0.014747514
0.019283824 0.02683829 0.0052138246 0.024357744 -0.02946668 -0.019147225 -0.033227026 -0.018676523
0.023053683 -0.015655799 -0.01234785 0.0045985896 -0.022894546 -0.018220332 -0.0088133905 0.017311024
-0.016026719 0.0010628046 -0.0018697552 0.0124884285 -0.018139657 0.013509674 -0.010508082 -0.013983182
-0.010967857 0.0044596945 -0.007269757 -0.008752062 -0.011283981 -0.0094191935 -0.01773716 0.015244623
-0.02279316 0.0026966357 0.007761889 0.0005152918 -0.009496281 -0.013024296 0.030662572 0.016200764
-0.02036528 0.01746029 -0.02368986 0.011109411 -0.0199061 0.023556437 -0.009756067 -0.020372838
-0.00014333737 0.0061007403 0.0074086334 -0.007112111 -0.0149925165 -0.019670125 -0.01812001 -0.0052489988
-0.0015667253 0.020629901 0.0022758793 -0.02779742 -0.017857943 -0.02817808 0.017736102 0.02274751
-0.007621333 -0.00094432326 -0.012779133 -0.007952365 0.013539976 -0.009283771 -0.0005767674 0.015916588
0.022714853 -0.023798548 0.0051467447 -0.025570551 -0.025627207 0.0015805037 0.028553186 0.010839326
-0.021514168 0.0128826415 -0.012117114 0.009227658 -0.014911767 0.0061336914 -0.02208012 -0.008891597
-0.015685882 0.012309823 0.025866086 0.012155381 -0.013651809 -0.012730749 -0.011702679 0.024243781
0.014576486 -0.017281631 -0.029441504 0.011368277 0.010866138 -0.011317645 -0.0023120057 0.019247899
0.014258001 0.02635618 0.0064834007 0.0015310136 -0.008205203 0.029753322 0.005052039 -0.014292395
0.02126622 -0.0066718957 -0.008957207 -0.0037382524 -0.013839339 -0.021208389 0.019222066 0.018022068
0.0061861672 0.008137933 -0.023926675 -0.020515611 0.017386245 -0.018414704 -0.009370269 0.00090200605
-0.015326662 0.0066039655 -0.007500703 0.0023560137 -0.017219134 0.0048836893 0.019096289 0.017315663
0.0041542 -0.018134255 -0.022641074 0.009528588 0.017344514 0.018118368 -0.0023467254 -0.014961687
0.024910424 -0.012290666 -0.020399697 0.017066682 0.013565525 -0.025607198 0.015081286 0.004500048
00000000: 7079 c3bc 75ea 39bc 03a8 b63c 18c5 bbbb
00000010: 2273 8f3a e329 1fbb c3b4 0fbb 253c 6b3c
00000020: b807 65bb a501 3abc 920d 60bc afaa b23c
00000030: abc6 afbc 0780 213c 8630 8cbc 9fd7 fdbb
00000040: 11ae e03b 3573 be3c ac15 b83c c020 cd3a
00000050: d8ca 043c e5d6 513c cb4d b13c fe95 9ebb
00000060: 727c 993b 0751 50bc 7d2c 85bc bfbe c73b
00000070: f15f 80ba 0102 a7bc d870 bbbc e24a b6bc
00000080: ca2c f23b 341d 1c3b bdf5 f23c 2eed efbb
00000090: 062f 313c 2ee0 25bc 8b2e c93b 93c3 503c
000000a0: 484a b9bc 0800 e13c 3f97 c2bc 06f9 de3c
000000b0: 9d47 c33c 152e f33c dde0 843c 39b1 623b
000000c0: 0b64 c7bc be98 ae3c a6c1 bbbb 81f9 88bc
000000d0: f4ec c6bc 0b48 1a3c cef6 c43c be33 a83c
000000e0: a663 ca3b 0d31 7dbc 8e93 913c 53ac 06bc
000000f0: 63f6 bebc 6973 ae3c 198a 40bc 3c9a a73c
00000100: 8f13 f1bc 7f80 713c 2080 0d3b 68b3 cfbc
00000110: 7b14 283b 72e7 e6bc 9ac3 a9bc 0270 273c
00000120: 8e75 79bb a55d d4bc 1260 afbc aebe b2bc
00000130: 414d 983c f99c 173c 3480 e7bc d78f 603b
00000140: 33ad 373c 17d0 1ebc 7304 493c 0a33 ba3c
00000150: f586 8f3c 3cd0 b33c 03cc febc 5269 2e3c
00000160: 2a9d 573c 3ce1 493b 2b27 1c3c 7ab5 913c
00000170: 5fb7 d6bc defa 74bc 0325 dc3c be8d 433b
00000180: b83f 863c ebfa cfbc bf6e a13c 46ff 3d3b
00000190: 74fe ba3b 7404 fdbc e394 693c 8f9f 713c
000001a0: 1cf9 9d3c f9db db3c bbd8 aa3b e489 c73c
000001b0: 1b64 f1bc a4da 9cbc 1019 08bd 82ff 98bc
000001c0: 14db bc3c 9740 80bc a34e 4abc c4af 963b
000001d0: 588d bbbc ce42 95bc 0a66 10bc d9cf 8d3c
000001e0: 774a 83bc ce4d 8b3a 9312 f5ba 449c 4c3c
000001f0: 9e99 94bc ae57 5d3c 172a 2cbc b719 65bc
00000200: 87b2 33bc a122 923b 2437 eebb cf64 0fbc
00000210: 72e0 38bc f652 1abc 854d 91bc 95c4 793c
00000220: b9b8 babc 0aba 303b 7257 fe3b a614 073a
00000230: 4a96 1bbc db63 55bc 1330 fb3c 77b7 843c
00000240: 16d5 a6bc e208 8f3c 3d11 c2bc 3f04 363c
00000250: 1e12 a3bc 6ef9 c03c e9d7 1fbc f0e4 a6bc
00000260: d54c 16b9 b8e8 c73b 1fc4 f23b b60c e9bb
00000270: 2ca3 75bc 3e23 a1bc 6a70 94bc cbff abbb
00000280: 945a cdba 0a00 a93c eb26 153b 6ab7 e3bc
00000290: d24a 92bc b8d5 e6bc 4d4b 913c fc58 ba3c
000002a0: 60bc f9bb 768c 77ba 925f 51bc a34a 02bc
000002b0: c7d6 5d3c f51a 18bc 3432 17ba 8163 823c
000002c0: 8014 ba3c 2cf5 c2bc 06a6 a83b 5579 d1bc
000002d0: 26f0 d1bc e728 cf3a 5fe8 e93c 6e97 313c
000002e0: 7b3e b0bc b711 533c dc86 46bc 9a2f 173c
000002f0: 7c50 74bc 22fd c83b 5ee1 b4bc 10ae 11bc
00000300: ae7f 80bc 24af 493c 1de5 d33c 5d27 473c
00000310: d6ab 5fbc a294 50bc 98bc 3fbc e59a c63c
00000320: 37d2 6e3c 3592 8dbc 4f2f f1bc 0242 3a3c
00000330: e307 323c a56d 39bc 0585 17bb c5ad 9d3c
00000340: 649a 693c eae8 d73c b572 d43b 4bac c83a
00000350: 1e6f 06bc 3dbd f33c 938b a53b a62a 6abc
00000360: 7f36 ae3c eb9f dabb 40c1 12bc 78fd 74bb
00000370: 65be 62bc 37bd adbc 9877 9d3c 04a3 933c
00000380: 55b5 ca3b f754 053c e001 c4bc 5b10 a8bc
00000390: 996d 8e3c 6fda 96bc c285 19bc 9a74 6c3a
000003a0: ae1c 7bbc 1466 d83b 75c8 f5bb 5a67 1a3b
000003b0: 240f 8dbc 5b07 a03b d26f 9c3c 94d9 8d3c
000003c0: f51f 883b 4a8e 94bc c679 b9bc cb1d 1c3c
000003d0: 1516 8e3c f96c 943c 85cb 19bb dd21 75bc
000003e0: f210 cc3c ca5e 49bc 441d a7bc 6dcf 8b3c
000003f0: f041 5e3c 30c6 d1bc 8017 773c 2375 933b

bias f4 [97]
0.041315045 -0.003128022 0.010400935 0.0075507956 0.0014695706 -0.008331289 -0.040256277 0.022571929
-0.022081615 0.01989386 -0.008626085 -0.032827318 -0.0008087934 0.02876009 0.002299815 -0.030630322
-0.02813776 0.00077754864 -0.028585488 -0.03487954 0.013082518 0.020224562 0.0047151954 -0.015016013
0.016784444 -0.015794154 0.010283248 -0.019329285 -0.0077928514 -0.03266734 -0.0243168 -0.002972714
-0.088292144 -0.020779593 0.015679749 -0.0016888067 -0.02651619 -0.037837338 -0.014687538 -0.048346095
0.013309733 -0.08702844 -0.05904122 0.005977083 -0.03953745 -0.047984604 -0.062806524 -0.057528216
-0.062139343 -0.008038337 -0.047168605 -0.07612845 -0.09762163 -0.012224266 0.015984224 -0.028633948
-0.020481583 -0.019146783 -0.084180534 -0.018094499 -0.026068093 -0.03489525 -0.08914251 -0.046255358
0.00026984292 -0.10316224 -0.068752855 -0.06685014 -0.04622647 -0.09045769 -0.07110213 -0.08327808
-0.07565471 -0.04712337 -0.047448643 -0.033289388 -0.08004366 -0.05971565 -0.044844683 -0.060101185
-0.054434244 -0.10388952 -0.09554445 -0.04722663 -0.08601414 -0.06925505 -0.043822363 -0.084575154
-0.08808282 -0.082504 -0.10831494 -0.08377991 -0.098295875 -0.100276865 -0.08790893 -0.101159975
-0.06763703
00000000: f739 293d 80ff 4cbb af68 2a3c aa6c f73b
00000010: 9b9e c03a f57f 08bc c4e3 24bd c4e8 b83c
00000020: 81e4 b4bc 73f8 a23c 6c54 0dbc f075 06bd
00000030: 3505 54ba 489a eb3c 7eb8 163b 71ec fabc
00000040: 2981 e6bc 68d4 4b3a 1d2c eabc d9dd 0ebd
00000050: 0f58 563c fbad a53c ed81 9a3b b905 76bc
00000060: 887f 893c be62 81bc 117b 283c 7358 9ebc
00000070: 2d5b ffbb 30ce 05bd 0734 c7bc ddd1 42bb
00000080: 83d2 b4bd f739 aabc d172 803c f35a ddba
00000090: 7b38 d9bc 53fb 1abd 00a4 70bc 8e06 46bd
000000a0: 1111 5a3c f73b b2bd 35d5 71bd 68db c33b
000000b0: 05f2 21bd 818b 44bd b5a0 80bd b5a2 6bbd
000000c0: d385 7ebd 3bb3 03bc de33 41bd 3ce9 9bbd
000000d0: d9ed c7bd 4a48 48bc 59f1 823c be91 eabc
000000e0: fec8 a7bc b7d9 9cbc d866 acbd ea3a 94bc
000000f0: c18c d5bc 52ee 0ebd 5990 b6bd 4276 3dbd
00000100: b479 8d39 b946 d3bd 4cce 8cbd bae8 88bd
00000110: f857 3dbd e241 b9bd fe9d 91bd b38d aabd
00000120: dbf0 9abd 6f04 41bd 8259 42bd 745a 08bd
00000130: eeed a3bd 6698 74bd 0faf 37bd a92c 76bd
00000140: 71f6 5ebd 07c4 d4bd cfac c3bd b670 41bd
00000150: 2e28 b0bd 97d5 8dbd 147f 33bd bd35 adbd
00000160: c464 b4bd dbf7 a8bd 39d4 ddbd cd94 abbd
00000170: 594f c9bd f55d cdbd 9909 b4bd f62c cfbd
00000180: 4885 8abd
