Models/ud_srl-pt_bertimbau-large/linear_layer.pt (torch_old, 353122 bytes, 2 tensors)

weight f4 [86, 1024]
0	0xbd06053a	-0.03271983
1	0x3d0b5c60	0.034023643
2	0xbb5272ad	-0.003211181
3	0x3c89e49c	0.016832642
4	0xbcbaace1	-0.022787513
5	0xbc0f4052	-0.0087433625
6	0xbc464318	-0.012100957
7	0x3ca9bc0e	0.020719554
8	0xbc6e18fe	-0.014532326
9	0x3ba27e53	0.0049589067
10	0xbce5cfe0	-0.028053224
11	0xbc768fc3	-0.015048924
12	0xbd01582f	-0.03157824
13	0x3d043af3	0.03228278
14	0x3cd30364	0.025758453
15	0x3c7e99f7	0.015539638
16	0xbc33aa23	-0.010965857
17	0x3c543002	0.012950899
18	0x3d0d2f1c	0.034468755
19	0xbcb9cd32	-0.022680853
20	0x3ad9ebd2	0.0016626066
21	0x3bf03d35	0.007331515
22	0x3c9ed6f2	0.019389603
23	0xbca83ac4	-0.020535834
24	0x3ce7da70	0.028302401
25	0x3c93db57	0.018048925
26	0x3bf58d14	0.0074936245
27	0x3cb58418	0.022157714
28	0xbbbcae7a	-0.005758104
29	0xbc8ff7e0	-0.01757425
30	0xbc6e8508	-0.014558084
31	0xbc749ebb	-0.014930422
32	0x3d04db27	0.032435562
33	0xbcffe671	-0.031237813
34	0x3c22fd1a	0.009948039
35	0xbc26d1d7	-0.010181866
36	0xbcb4eac5	-0.022084603
37	0x3be4f313	0.0069869845
38	0xbb4134f8	-0.0029481035
39	0x3bd42c94	0.0064750407
40	0x3c8e8c14	0.017400779
41	0xbcb6bcd2	-0.022306833
42	0x3c234b7c	0.009966727
43	0xb7cdc9a2	-2.4531797e-05
44	0xbd083e9e	-0.03326284
45	0xbc927661	-0.017878713
46	0xbb9785df	-0.004624113
47	0x3ceb164e	0.02869716
48	0xbc2d0d74	-0.0105622895
49	0x3c9682a4	0.018372841
50	0x3d0695c5	0.032857675
51	0xbcc7ccf0	-0.024389714
52	0xbcbad6a3	-0.022807425
53	0x3c9a7563	0.018854802
54	0x3aa095c1	0.0012251661
55	0x3c9ad9e4	0.018902726
56	0x3cf591e4	0.029976793
57	0x3ce1127c	0.027474634
58	0xbca8b752	-0.020595226
59	0xbb9482e1	-0.0045322035
60	0xbcd8539b	-0.026407054
61	0xbcb460eb	-0.02201887
62	0x3ba177a9	0.0049275947
63	0xbcc5bb94	-0.024137296
64	0xbd080916	-0.03321179
65	0x3c5b46d1	0.013383583
66	0xbd13bc89	-0.036068473
67	0x3c78dade	0.015188901
68	0xbcd86bac	-0.02641853
69	0xbca48a24	-0.020085402
70	0xbcecfb2d	-0.028928364
71	0x3ce4ce39	0.027930366
72	0xbc57dd05	-0.013175254
73	0xbcabb5df	-0.020960746
74	0x3bdf03a5	0.0068058544
75	0x3c21a4fb	0.009865995
76	0x3cabf8a7	0.02099259
77	0x3cd3c21e	0.025849398
78	0x3c31928d	0.010838163
79	0xbb91c347	-0.0044483277
80	0x3c287132	0.010280894
81	0xbd04f9e5	-0.03246488
82	0x3c82bed4	0.015960135
83	0xbcbc7d24	-0.02300889
84	0x3d0f4754	0.034980133
85	0xbcb894c6	-0.022531878
86	0xbcc9677b	-0.024585476
87	0x3bd04413	0.0063557713
88	0xbcc1a1e4	-0.023636766
89	0x3d0012d6	0.031267963
90	0x3ccd5c77	0.025068505
91	0xbbbaea23	-0.005704181
92	0xbd0952ea	-0.03352634
93	0x3bcb0878	0.006196078
94	0x3cf8958e	0.03034475
95	0xbcc423d8	-0.023942873
96	0xbcedac81	-0.02901292
97	0x3be9e160	0.0071374625
98	0xbc1a11f3	-0.0094036935
99	0xbcbcc560	-0.023043334
100	0x3b35b863	0.0027728311
101	0xbc3d79c9	-0.01156468
102	0xbcd57444	-0.026056416
103	0xbc6da625	-0.014504944
104	0x3b8323f2	0.0040020877
105	0x3bfb301d	0.0076656477
106	0x3d165a61	0.036707286
107	0x3cc77b1e	0.024350699
108	0x3d0eda93	0.034876417
109	0xbbaa476e	-0.0051965034
110	0xbbb01777	-0.005373891
111	0xbcf4961c	-0.029856734
112	0xbc999849	-0.018749373
113	0x3ce7a196	0.028275292
114	0x3c39a078	0.011329763
115	0x3c98a372	0.018632624
116	0xbcdb9827	-0.02680595
117	0x3cdbd4b5	0.026834825
118	0x3b8dfe14	0.004333267
119	0xbcd70ba8	-0.026250675
120	0x3b42bc7f	0.0029714403
121	0xbc1d54ef	-0.009602769
122	0xbcff81d9	-0.031189846
123	0xbc90b42d	-0.01766404
124	0x3d1abb59	0.037776325
125	0x3a22ac7b	0.0006205511
126	0xbc7a0edc	-0.015262332
127	0xbc86a2f5	-0.016435126
128	0xbcb45f66	-0.022018146
129	0x3cf2c554	0.029635109
130	0xbd161cdf	-0.036648627
131	0x3b75d308	0.0037509818
132	0x3b9c7a0e	0.0047752922
133	0xbca983f8	-0.02069281
134	0x3cadf075	0.021232823
135	0x3ce6d2b7	0.028176649
136	0xbb3a37cf	-0.0028414612
137	0x3c1582d3	0.009125429
138	0xba71dca5	-0.0009226299
139	0x3ca35e75	0.019942502
140	0xbc2ac5ce	-0.010423137
141	0x3c3a5af0	0.01137422
142	0x3cf7ba88	0.030240312
143	0xba95e1be	-0.0011435074
144	0x3c89cf75	0.016822556
145	0x3cc61523	0.02418
146	0x3c8815cd	0.016611958
147	0x3b3721ce	0.0027943733
148	0x3b4ba7a9	0.0031075275
149	0x3c9cf708	0.019160762
150	0x3cf2b842	0.029628877
151	0x3d09a60c	0.03360562
152	0xbaf676ff	-0.0018803774
153	0x3ca8e9ad	0.020619238
154	0x3d068d82	0.032849796
155	0xbcfbd613	-0.030741727
156	0xbc07dfaf	-0.008293076
157	0x3d026455	0.031833965
158	0x3cc85e0a	0.024458904
159	0xbcc8a179	-0.024491059
160	0xbc27d1a9	-0.010242858
161	0xbc949b46	-0.018140446
162	0xbad4f2b6	-0.001624665
163	0xbc205a4b	-0.0097871525
164	0xbc5ae99b	-0.01336136
165	0x3cf2fe80	0.02966237
166	0xbc4644e7	-0.012101389
167	0xbc8a6a6a	-0.016896445
168	0x3d0f4150	0.034974396
169	0xbd09eb80	-0.033671856
170	0x3be05b88	0.006846849
171	0xbc985cbf	-0.018598912
172	0x3c898b1a	0.016789962
173	0xbc86c649	-0.016451972
174	0xbc2d94dd	-0.010594574
175	0xbc06599f	-0.008200078
176	0x3cd91e68	0.026503757
177	0xbb700ea0	-0.003662981
178	0xbc15ff04	-0.009155039
179	0x3d017ee1	0.03161514
180	0xbc26ff4f	-0.010192706
181	0xbae251f7	-0.0017266859
182	0xbd07f0b4	-0.033188537
183	0xbcf46adf	-0.029836116
184	0xbc77630c	-0.015099298
185	0xbc28e39a	-0.010308171
186	0xbc0eea45	-0.008722846
187	0xbcf52e05	-0.02992917
188	0xbcdfe3fa	-0.027330387
189	0x3c9fc27f	0.019501923
190	0xbbcc03bd	-0.0062260316
191	0x3b9c2f42	0.0047663758
192	0x3ceebe3f	0.02914345
193	0xbc15efa9	-0.009151378
194	0x3c3c49f6	0.011492243
195	0x3cee1dd5	0.02906696
196	0x3c4f4920	0.012651712
197	0x3cb675b8	0.02227293
198	0xbb7fe601	-0.0039047005
199	0xbb9024b1	-0.004398905
200	0x3c8a70a3	0.016899412
201	0xbccdabb2	-0.025106285
202	0x3c8f5a69	0.017499166
203	0x3cec63d9	0.028856205
204	0x3cb788ec	0.022404157
205	0x3bb20eaa	0.005433877
206	0x3cfd9ba4	0.030958004
207	0xbd01d53e	-0.031697504
208	0xbcf145c3	-0.02945221
209	0x3c920baf	0.017827837
210	0xbc480003	-0.012207034
211	0x3ca45441	0.020059707
212	0xbbd2d765	-0.0064343684
213	0x3b83022a	0.0039980607
214	0x3b889c50	0.0041690245
215	0x3ccd0129	0.025024967
216	0xbce16913	-0.027515924
217	0xbc9ac162	-0.01889104
218	0x3cb7d3e2	0.0224399
219	0x3c32e531	0.010918901
220	0xbb18f10f	-0.0023337041
221	0xbce967f3	-0.02849195
222	0xbbb4aacf	-0.005513526
223	0xbc75177e	-0.014959214
224	0x3d090469	0.03345147
225	0xbc1a07eb	-0.009401302
226	0x3cfdb7aa	0.030971367
227	0x3cbe6917	0.02324347
228	0xbc3ea75a	-0.011636579
229	0xbd052dcf	-0.03251439
230	0x3c53d81c	0.012929942
231	0x3c5e3f04	0.013564829
232	0x3b26309f	0.002535857
233	0x3cd8c4a9	0.026460962
234	0xbc87aead	-0.016562784
235	0xbcb930a7	-0.022606207
236	0x3cb8ab5e	0.022542652
237	0xbcbdd837	-0.023174388
238	0xbcf4c391	-0.02987841
239	0xbce9a0b3	-0.02851901
240	0x3befb01e	0.007314696
241	0x3c24bc8c	0.010054719
242	0x3c952c24	0.018209524
243	0x3d0b20d8	0.03396687
244	0x3b80f875	0.0039358684
245	0x3cc599fc	0.024121277
246	0x3c61b555	0.013776143
247	0x3ca1a150	0.01973024
248	0x3afc984c	0.0019271462
249	0x3d07d8bd	0.033165682
250	0x3c959fb4	0.018264629
251	0xbcd53cce	-0.02602997
252	0xbcd32333	-0.02577362
253	0xbc3af8b6	-0.011411836
254	0x3ca48fba	0.020088065
255	0x3cc8db0b	0.02451851

bias f4 [86]
0	0x3d01f393	0.03172643
1	0x3cb0b05c	0.02156847
2	0xbc770d56	-0.015078863
3	0xbc9425c6	-0.018084418
4	0x3a94dfda	0.0011358217
5	0x3c8aca1c	0.016942076
6	0x3c0b622d	0.008507294
7	0x3b393ed0	0.00282662
8	0x3b1bdcc7	0.0023782717
9	0x3b057205	0.002036215
10	0xbc39b67d	-0.0113350125
11	0x3c4a5786	0.012349969
12	0x3cbdbf1a	0.023162413
13	0x3c15170f	0.009099736
14	0xbcc049a0	-0.023472607
15	0xbb8e03b0	-0.0043339357
16	0x3cf520fa	0.029922951
17	0x3c192001	0.009346009
18	0xbc695341	-0.014241041
19	0x3c00e427	0.007866896
20	0xbc299125	-0.010349547
21	0x3b8bbdce	0.00426457
22	0xbbb6f6ac	-0.005583605
23	0x3c8fb817	0.017543836
24	0xbcc5d3c7	-0.024148835
25	0xbbe088c2	-0.0068522403
26	0xbd040ca7	-0.03223863
27	0x3c9284af	0.017885534
28	0xbc4529cd	-0.012033892
29	0xbcc10371	-0.023561211
30	0xbc4c6365	-0.012474869
31	0xb9b73ba0	-0.00034948904
32	0xbce76ecf	-0.02825108
33	0xbcea3e45	-0.028594146
34	0x3bac3446	0.005255255
35	0xbca45018	-0.020057723
36	0xbb966aa3	-0.004590349
37	0x3c2050e6	0.009784913
38	0xbc133b3e	-0.008986292
39	0xbd0f5d73	-0.03500123
40	0x3c848688	0.01617743
41	0xbc1c4bdb	-0.00953957
42	0xbcd890fb	-0.02643632
43	0xbbd71829	-0.0065641594
44	0x3c953c7f	0.018217323
45	0x3cafb1aa	0.021447022
46	0xbb299123	-0.0025873862
47	0xb9c7adb5	-0.0003808566
48	0xbd12f34d	-0.03587656
49	0xbc3f6b2c	-0.011683267
50	0xbc84ff22	-0.016234938
51	0xbd01c63f	-0.031683203
52	0x3c829bfc	0.01594352
53	0x39af8085	0.00033474356
54	0xbd0203cc	-0.031741902
55	0x3c312f2c	0.010814469
56	0xbcade38b	-0.021226665
57	0x3c3c3a54	0.011488516
58	0xbd3e68b9	-0.04648659
59	0xbd31bb0d	-0.043391276
60	0xbb96836e	-0.0045933044
61	0xbc8151e9	-0.015786128
62	0xbcfb6287	-0.03068663
63	0xbd2e37b3	-0.042533588
64	0x3ac25c6a	0.0014828567
65	0xbb8b2733	-0.0042466163
66	0xbd227d08	-0.03967002
67	0xbd69102c	-0.05690019
68	0x3ba809ab	0.0051281056
69	0xbd211924	-0.039330617
70	0xbd02778d	-0.031852294
71	0xbc1d1a9e	-0.009588866
72	0xbcc71fad	-0.024307096
73	0xbc8a61a5	-0.016892264
74	0xbd3ffb8e	-0.04687076
75	0xbd1ae4af	-0.037815746
76	0xbd033897	-0.03203639
77	0xbc9269d1	-0.017872723
78	0xbd9689b1	-0.07350481
79	0xbcf9b6dc	-0.030482702
80	0xbba5e771	-0.0050629904
81	0xbd27a395	-0.04092749
82	0xbd3b38a4	-0.045708314
83	0xbcdda244	-0.027054913
84	0xbcfce0ad	-0.030868853
85	0xbda94f31	-0.08267058
