Models/srl-enpt_xlmr-large/linear_layer.pt (torch_old, 398222 bytes, 2 tensors)

weight f4 [97, 1024]
00000000: 0fa0 b5bc 2941 24bc 4902 c43c 7f46 c7bb
00000010: f3c4 9cbb a7e2 95bb 7102 03ba 96d3 583c
00000020: e9c0 d7bb 4267 44bc 2256 65bc 6190 a13c
00000030: 9127 82bc 7e8e 1d3c 0a10 8abc f531 80bb
00000040: 0a5f c43b 22e7 ab3c 457b c43c 446f c53b
00000050: 86c6 0a3c 732c 523c 7fe6 bb3c e427 b2bb
00000060: 093f d33b 4077 1dbc f8ff 64bc 418c 4a3b
00000070: 5ed1 3cbb 3bc3 92bc 7d86 b0bc 0309 a3bc
00000080: 8682 303b 4e1f 673b 780a dd3c faaf b0bb
00000090: e4fc 5c3c 6d9b 10bc c29b b73b bb5b 3e3c
000000a0: ab16 b8bc 7c1d df3c d1fb b4bc 00fe ba3c
000000b0: 2a04 ce3c 4cc7 ec3c 2a95 963c d33b 6d3b
000000c0: c80f b6bc 08fe b63c 0526 b2bb 38e7 7cbc
000000d0: 46a0 98bc 742b bf3b 315f c23c 8344 b33c
000000e0: 4d53 a13b f7a2 4cbc b407 9a3c 0d0e dabb
000000f0: 03d4 cfbc 0aeb a23c 166f 49bc 24a3 aa3c
00000100: c738 edbc 5ea4 653c 6ce2 0fba 3f78 c2bc
00000110: 2ab2 f639 df0e f8bc 1dea 9abc 2bd9 033c
00000120: 444f e6bb cf1e acbc 7f76 b4bc 19c3 97bc
00000130: 1b9c 9e3c 64e0 193c f088 d6bc e1b6 033c
00000140: 7ef7 1d3c a92c 57bc a576 6d3c 59a5 a63c
00000150: 10a5 a43c 6657 9b3c 9c52 d4bc b2e3 f13b
00000160: f6fa 543c e0fc 853a d0d6 0d3c b5b6 a53c
00000170: 871e cbbc e354 80bc 8626 c33c aaa1 8e3b
00000180: 2870 793c 7de5 a1bc 7ba5 853c 8f56 c73b
00000190: bb0f 8f3b 94e3 ecbc 6ec3 863c 3365 4c3c
000001a0: 6d6b 923c 2bef d53c f41a d0ba 64af d53c
000001b0: a2dd e6bc a9be a4bc ad82 f2bc 1711 7cbc
000001c0: 5ec8 af3c c90c 67bc 001b 17bc 517b 533b
000001d0: 822f b6bc a7f9 aabc 1525 b7bb ec4b 513c
000001e0: 0998 4ebc c3cc 6fbb 5dd1 6abb b683 6a3c
000001f0: f583 94bc 47a6 993c 7ccf 1ebc 8d19 8abc
00000200: 275d ffbb 0027 be39 0487 d3bb 2733 47bc
00000210: dc85 58bc 9890 0fbc 62ed 8cbc cd38 473c
00000220: 94ad bcbc a450 f8ba 75c2 7f3b 2c38 89bb
00000230: 2e6c 36bc a128 71bc 2ed1 043d 910f 923c
00000240: 596c 59bc 828f 803c 4cee b9bc b1bf 663c
00000250: 06ff 90bc c830 b33c 8442 26bc c23e aabc
00000260: 77cf 4dbb 9af4 133c 3280 243c dd1a 34bc
00000270: 22c8 82bc 4e6e 8bbc f515 8abc 6d44 a3bb
00000280: f004 64bb 3917 a63c 1f76 813b f75d efbc
00000290: e5db a6bc 3617 cfbc e178 7b3c bc2b 8a3c
000002a0: 6544 6abc 9fa3 66b8 4893 45bc b8c7 adbb
000002b0: d813 8f3c 4a72 39bc 0e55 85bb 562f ab3c
000002c0: 19b8 d83c 4ea6 97bc ec09 9b3b d82a e6bc
000002d0: 1cca d7bc dc3a 22bb c6f3 e63c 46f9 4e3c
000002e0: 5dde b2bc aafe 493c 818e 35bc a465 f03b
000002f0: 67cb 88bc 0d7c 433c c561 bfbc 5982 26bc
00000300: 51d6 83bc de5a 193c edf3 bf3c 9abd 533c
00000310: 51c2 60bc 86d2 3cbc e354 06bc 770b bc3c
00000320: a6fe 333c 8ae3 7cbc e468 ecbc 55b8 4e3c
00000330: fa90 093c 5e05 36bc 99c0 c4ba 24d6 a13c
00000340: 7d88 563c c687 9a3c 5494 c63b d380 9d3a
00000350: e820 f9bb 9a78 ec3c 3ae5 073c 33c1 64bc
00000360: d738 a23c cd3d 6dbc 5d24 08bc 4a48 11bb
00000370: 0fad 45bc cd4c a7bc 7e10 383c 2364 973c
00000380: 93b9 883a 4d41 3c3c 9e66 afbc c608 7cbc
00000390: 8266 9e3c e0ae 9abc a7de c7bb 207e 13bb
000003a0: 3c1f 51bc f67a e73b 25c3 c6bb 5a15 323b
000003b0: 99a9 97bc 2ff6 bb3b 9b0f ab3c 1ee9 913c
000003c0: 9ce8 4b3b ecbb 8cbc 5db1 afbc 1238 493c
000003d0: 2361 443c fd4d 703c 9d12 09bb 9a05 4ebc
000003e0: 1fd3 863c 8db5 09bc a05d b5bc cf44 873c
000003f0: 92d6 7a3c aa1f cebc 551c 9c3c c1fb 0f3a
-0.022171048 -0.010025301 0.02392687 -0.006081402 -0.0047842204 -0.004574138 -0.0004997617 0.01323404
-0.006584276 -0.011987509 -0.013997586 0.019722166 -0.015888007 0.009616492 -0.016853351 -0.0039122053
0.005992775 0.020984236 0.02398456 0.006025227 0.008470183 0.01282798 0.022937058 -0.0054368842
0.0064467234 -0.009610951 -0.013977043 0.0030906352 -0.0028811316 -0.017915359 -0.021548504 -0.019901758
0.0026933267 0.0035266462 0.026982531 -0.005392072 0.013488028 -0.008826119 0.0056032846 0.01161855
-0.022471746 0.027235739 -0.022092732 0.022826195 0.02514847 0.028903626 0.018381674 0.0036198988
-0.022224322 0.022337928 -0.005436661 -0.015435986 -0.018631112 0.0058340374 0.023727031 0.021883255
0.0049232603 -0.012490026 0.018802501 -0.006654507 -0.02536965 0.019887466 -0.012294551 0.020829745
-0.028957738 0.014016239 -0.00054887566 -0.023738978 0.0004705352 -0.030280529 -0.018910462 0.008047382
-0.007028492 -0.021010784 -0.02202916 -0.018525647 0.019361546 0.009391878 -0.026188344 0.008039207
0.009641526 -0.013133206 0.014493619 0.020342516 0.02009824 0.018962573 -0.025918297 0.0073818797
0.012999287 0.0010222457 0.008657172 0.020228723 -0.02479483 -0.015665477 0.02382208 0.004352768
0.015224494 -0.019762749 0.016314259 0.0060833166 0.004365889 -0.028917111 0.01645061 0.0124753
0.01787349 0.02611502 -0.0015877173 0.02608461 -0.028181855 -0.020110445 -0.029603327 -0.015384934
0.021457847 -0.014102169 -0.009222746 0.0032269547 -0.02223945 -0.020870997 -0.0055891373 0.012774449
-0.01260949 -0.0036590553 -0.0035830357 0.014313629 -0.018129328 0.018756045 -0.009693023 -0.016857887
-0.007793087 0.0003626868 -0.006455304 -0.012158192 -0.013215508 -0.008762501 -0.017203037 0.012159538
-0.023031987 -0.0018944931 0.0039025818 -0.0041876044 -0.0111341905 -0.014719159 0.03242605 0.017829688
-0.013270461 0.01569343 -0.022696637 0.014083789 -0.01769973 0.021873847 -0.0101476945 -0.020781878
-0.0031404176 0.0090304855 0.01004033 -0.010992733 -0.015964571 -0.01702037 -0.016856173 -0.004982522
-0.0034792982 0.020274745 0.0039508487 -0.02921961 -0.020368526 -0.025279623 0.015348644 0.016866557
-0.014298533 -5.4988657e-05 -0.01205904 -0.0053033493 0.017465517 -0.011318753 -0.004068977 0.020896595
0.026454972 -0.018511917 0.0047314074 -0.028096601 -0.02634149 -0.0024754321 0.028192412 0.012632674
-0.021834547 0.012328783 -0.011081339 0.0073363353 -0.016698552 0.0119314315 -0.02336205 -0.010162913
-0.016093405 0.009360043 0.023431743 0.0129236225 -0.013718204 -0.011524802 -0.0081989495 0.022954686
0.010986006 -0.015435109 -0.02885861 0.01261719 0.0083963815 -0.011109678 -0.0015011012 0.01975543
0.013094065 0.01886357 0.0060601626 0.0012016542 -0.0076027997 0.028866101 0.008294398 -0.013962078
0.019802494 -0.0144800665 -0.008309451 -0.0022168332 -0.012065186 -0.020422364 0.011234401 0.018480366
0.0010431282 0.011490178 -0.021411236 -0.015382951 0.019335989 -0.018882215 -0.0060995403 -0.0022505596
-0.0127637945 0.0070642186 -0.0060657435 0.002717337 -0.018513488 0.0057361345 0.020881465 0.017811354
0.0031113988 -0.017179452 -0.021446878 0.012281435 0.01198605 0.014667031 -0.0020915635 -0.012574578
0.016458092 -0.0084051015 -0.02213937 0.016512303 0.015309947 -0.025161583 0.019056479 0.00054925313

bias f4 [97]
00000000: a892 283d 88b3 10bb 5820 0c3c 9e99 e63b
00000010: 22f5 00bc a4b9 cfbb 33c6 43bd f58f b53c
00000020: dede babc 0833 8e3c 0ead 20bc a5d6 14bd
00000030: c543 9fbb 62a5 d43c 947f 283a 4073 fdbc
00000040: adb1 f2bc 7647 3bba e17e efbc 47e5 0cbd
00000050: 1526 3a3c 1e7d 8c3c c33e 763b 18ca 80bc
00000060: 05ea 873c df60 87bc dd12 ea3b 1f4f b3bc
00000070: b1c2 16bc a364 0dbd def3 cfbc 9b1d 90bb
00000080: c5f9 b5bd b78a b3bc d36f 603c 953e 80bb
00000090: 460e f5bc 00ea 30bd e3c3 b2bc 7d65 52bd
000000a0: 112d 093c 185b b1bd d97b 7dbd be2d 143b
000000b0: d4e8 2bbd 2a96 4ebd a8d9 83bd d74a 76bd
000000c0: da2e 86bd ed0e 90bc c8a8 52bd 1ce4 a4bd
000000d0: 8956 cdbd a886 56bc 9013 7a3c ce72 0dbd
000000e0: 8016 c1bc e92c d8bc 8bfc b1bd 8eff cdbc
000000f0: bcb3 05bd b837 1abd 7544 babd e513 52bd
00000100: 3959 53bb 5b6d e0bd 67de 9bbd 0f53 8fbd
00000110: 0347 43bd f914 c3bd 8def 99bd 78b7 a0bd
00000120: c3dd 99bd c70a 57bd f9ed 5ebd 19aa 15bd
00000130: 41f2 b2bd d9a9 84bd 5edb 47bd d32e 83bd
00000140: 7b01 6abd 5760 f3bd 6e36 cabd c584 61bd
00000150: 580e b6bd 5716 90bd 15b8 82bd 200b d1bd
00000160: 1524 d3bd 0084 c8bd 4666 febd 62e4 cbbd
00000170: 7d75 ebbd a2fb ecbd a4e6 d3bd 18d8 ecbd
00000180: 97bb a9bd
0.041155487 -0.0022079665 0.008552633 0.0070373556 -0.007870944 -0.0063392688 -0.04779644 0.02216337
-0.02281135 0.017358318 -0.009806884 -0.036337513 -0.0048603737 0.025957767 0.0006427702 -0.030938745
-0.029625738 -0.00071441324 -0.029235305 -0.034398343 0.0113616185 0.017149504 0.003757403 -0.015721366
0.016591081 -0.016525684 0.007143362 -0.021888314 -0.0092016915 -0.034519803 -0.02538484 -0.0043980605
-0.088855304 -0.02191673 0.013698536 -0.0039137104 -0.029914033 -0.04319191 -0.021821922 -0.051366318
0.008372561 -0.08659953 -0.06188569 0.0022610272 -0.04197009 -0.050436176 -0.06437999 -0.060129967
-0.06551905 -0.017585242 -0.051430494 -0.08051321 -0.10026271 -0.013093628 0.015263453 -0.034533314
-0.0235703 -0.026388602 -0.08690747 -0.025146272 -0.03264211 -0.037650794 -0.090950884 -0.051288504
-0.0032249226 -0.10958358 -0.07610779 -0.06998264 -0.047675144 -0.095254846 -0.07516394 -0.07847494
-0.07513001 -0.052500512 -0.054426167 -0.03653917 -0.087376125 -0.06477708 -0.04879319 -0.064054154
-0.057130318 -0.1188361 -0.09873663 -0.05505826 -0.088894546 -0.07035511 -0.06382767 -0.102072
-0.103096165 -0.09790802 -0.12421851 -0.0995567 -0.114970185 -0.11571433 -0.103467256 -0.11564654
-0.08287733
