Models/srl-pt_bertimbau-large/linear_layer.pt (torch_old, 353122 bytes, 2 tensors)

weight f4 [86, 1024]
0	0xbcf5f582	-0.030024294
1	0x3d0a4f0a	0.033766784
2	0xbc12ff55	-0.008972009
3	0x3c881860	0.016613185
4	0xbcc04711	-0.023471387
5	0xbc13a1a0	-0.009010702
6	0xbc3c9840	-0.011510909
7	0x3cade94c	0.021229409
8	0xbc407c16	-0.011748334
9	0x3bf030f9	0.0073300567
10	0xbcf83286	-0.030297529
11	0xbc4ca1a0	-0.012489706
12	0xbcfcb020	-0.030845702
13	0x3cf30827	0.029666973
14	0x3cf6a7bd	0.03010928
15	0x3c828c5e	0.015936073
16	0xbc50a816	-0.012735387
17	0x3c6be0e3	0.014396879
18	0x3d007a7e	0.031366818
19	0xbcbf6a7b	-0.023366204
20	0xbb70a2f3	-0.003671822
21	0x3bd7d143	0.0065862252
22	0x3cb49d70	0.022047728
23	0xbca2acf4	-0.019857861
24	0x3ce1e2f6	0.027574044
25	0x3c5857ac	0.013204496
26	0x3c047b6d	0.008086068
27	0x3cc7ff55	0.024413744
28	0xbbef054d	-0.007294333
29	0xbca87e6e	-0.020568099
30	0xbc7bc413	-0.015366572
31	0xbc81bee3	-0.015838092
32	0x3d052fe7	0.032516386
33	0xbd0400b3	-0.03222723
34	0x3c369f07	0.0111463135
35	0xbbd011ce	-0.0063497787
36	0xbcbc3e54	-0.02297894
37	0x3c213a46	0.009840554
38	0x3b8a5dd6	0.004222612
39	0x3c0a0780	0.00842464
40	0x3c954b19	0.018224286
41	0xbcb976a0	-0.022639573
42	0x3c86dd1f	0.01646286
43	0xbb4819ad	-0.0030532882
44	0xbd0df479	-0.034656975
45	0xbc8bb5e3	-0.017054504
46	0xbb99d4f4	-0.0046945754
47	0x3cf46639	0.0298339
48	0xbc2345a0	-0.00996533
49	0x3c8acfc3	0.016944772
50	0x3d0a9d6f	0.033841547
51	0xbcca2a82	-0.024678472
52	0xbcb3c28b	-0.021943351
53	0x3c8ef6a2	0.017451588
54	0x3b26083e	0.0025334503
55	0x3c9f906a	0.019478042
56	0x3cf9c8f4	0.03049133
57	0x3cb67fca	0.022277731
58	0xbcacd33b	-0.021096816
59	0xbb5f6db3	-0.0034092485
60	0xbcd3c2f6	-0.0258498
61	0xbcb3ebb4	-0.021962978
62	0x3ba98f78	0.0051745735
63	0xbcbd9872	-0.02314398
64	0xbd11d2fa	-0.035601594
65	0x3c78b118	0.015178941
66	0xbd0cc3e9	-0.034366522
67	0x3c883655	0.01662747
68	0xbcd059ea	-0.0254335
69	0xbc97d5b2	-0.018534515
70	0xbce0eeb1	-0.027457567
71	0x3cd3c900	0.02585268
72	0xbc191ebb	-0.009345706
73	0xbcaf530a	-0.0214019
74	0x3b9988eb	0.0046855113
75	0x3c447195	0.011989971
76	0x3cd55475	0.026041249
77	0x3cce2c02	0.025167469
78	0x3c6de5d6	0.014520129
79	0xbb77b4b6	-0.003779692
80	0x3be2c1d6	0.0069200797
81	0xbd01ae5c	-0.031660423
82	0x3ca2931c	0.019845538
83	0xbcbe7178	-0.023247465
84	0x3d122236	0.035677157
85	0xbcced94b	-0.025250098
86	0xbcc5ed73	-0.024161076
87	0x3c0f1746	0.008733576
88	0xbcce51ad	-0.02518543
89	0x3cfa8cf4	0.03058479
90	0x3cb38b71	0.021917077
91	0xbb0add6e	-0.0021189111
92	0xbd0368a5	-0.03208222
93	0x3c0fe51e	0.008782653
94	0x3d029fd0	0.03189069
95	0xbca474f0	-0.020075291
96	0xbce6bac0	-0.028165221
97	0x3bf827ce	0.0075731045
98	0xbc4ea745	-0.012613122
99	0xbcca36fe	-0.024684425
100	0x3b88e4d7	0.0041776705
101	0xbc177a79	-0.009245508
102	0xbcdab9a4	-0.026699848
103	0xbc5a947f	-0.013341068
104	0x3b92e842	0.0044832537
105	0x3c2e96a5	0.010656034
106	0x3d19645b	0.037449222
107	0x3cd731bc	0.026268832
108	0x3d099bec	0.033595964
109	0xbbfb9077	-0.0076771337
110	0xbc121be1	-0.00891778
111	0xbceeb500	-0.029139042
112	0xbc9d71c1	-0.019219281
113	0x3d03587b	0.032066803
114	0x3ba9fc8c	0.0051875766
115	0x3c9f47bd	0.019443387
116	0xbcdb77a2	-0.026790444
117	0x3cc2dd58	0.023787186
118	0x3b02ceb3	0.0019959628
119	0xbcf14991	-0.029454025
120	0x39f19f8c	0.00046085974
121	0xbc0fae93	-0.008769649
122	0xbd0812d2	-0.033221073
123	0xbc8e382e	-0.017360773
124	0x3d10acf2	0.035321184
125	0x3abd5523	0.0014444928
126	0xbc84c704	-0.01620818
127	0xbc840f85	-0.016120682
128	0xbca87b38	-0.020566568
129	0x3cdebb25	0.027188847
130	0xbd117fc5	-0.03552224
131	0x3bb47964	0.005507635
132	0x3c283bb9	0.010268145
133	0xbcb4e9df	-0.022084175
134	0x3c8bdd79	0.01707338
135	0x3cf81238	0.030282125
136	0xbb33de78	-0.0027445834
137	0x3c375b98	0.011191271
138	0x3a9e19c7	0.0012062126
139	0x3ca9b957	0.02071826
140	0xbc4cb5f3	-0.012494552
141	0x3c23e502	0.01000333
142	0x3cfb8a6b	0.030705651
143	0x3a9c8ead	0.0011944376
144	0x3c8d3d0c	0.017241023
145	0x3cb748b6	0.022373538
146	0x3c80db18	0.015729472
147	0x372dd0ed	1.0360248e-05
148	0x3a8dc37b	0.0010815704
149	0x3c9f0976	0.019413691
150	0x3ceaec3c	0.028677098
151	0x3d0e087b	0.034676056
152	0x3a341833	0.0006870061
153	0x3cb1ed4e	0.021719601
154	0x3d0a2d33	0.03373451
155	0xbce2156e	-0.02759811
156	0xbc2fc7ac	-0.010728758
157	0x3d047f52	0.032347985
158	0x3cb04f50	0.021522194
159	0xbcbc05a0	-0.022951901
160	0xbc2bd80a	-0.010488519
161	0xbc8c617b	-0.017136326
162	0xba79d2de	-0.0009530018
163	0xbc50650c	-0.012719404
164	0xbc45d8c8	-0.01207561
165	0x3d03de92	0.03219468
166	0xbc72af36	-0.014812281
167	0xbc9b2bb6	-0.018941741
168	0x3d10398f	0.035211142
169	0xbd060274	-0.032717183
170	0x3c2e464c	0.010636877
171	0xbc7b01d1	-0.015320257
172	0x3c89ffa5	0.016845534
173	0xbc85dcd9	-0.01634066
174	0xbbf18b4c	-0.007371342
175	0xbc29fab2	-0.010374712
176	0x3cdb29a0	0.026753247
177	0xbb2103ca	-0.002456891
178	0xbc48ecd3	-0.012263495
179	0x3cfbf9aa	0.030758698
180	0xbc4be5fc	-0.012444969
181	0x3b319416	0.0027096323
182	0xbd00fb09	-0.031489406
183	0xbd01ba4c	-0.031671807
184	0xbc85b1a1	-0.016320052
185	0xbc257fbd	-0.010101256
186	0xbbc9e869	-0.0061617387
187	0xbcf53ca4	-0.029936142
188	0xbceb583f	-0.028728602
189	0x3c906e8b	0.017630836
190	0xbbcee0df	-0.006313428
191	0x3aea985d	0.0017898191
192	0x3cff2134	0.031143762
193	0xbc4d9534	-0.01254778
194	0x3c5e37c3	0.013563099
195	0x3cf9112b	0.030403694
196	0x3c3c26ad	0.01148383
197	0x3cc61eb7	0.024184568
198	0xbb6ab134	-0.0035811188
199	0xbbca209b	-0.0061684377
200	0x3c841643	0.016123896
201	0xbcc52560	-0.024065673
202	0x3c8dcd4b	0.017309805
203	0x3cdafb3d	0.026731128
204	0x3cd16f7d	0.025565857
205	0x3b2f9d75	0.0026796733
206	0x3d0a21eb	0.033723753
207	0xbd064eac	-0.03278987
208	0xbcd8e6e8	-0.026477292
209	0x3cb680f1	0.02227828
210	0xbc73e637	-0.01488643
211	0x3c8979dc	0.01678174
212	0xbbbed6f7	-0.0058239657
213	0x3ba8c8ba	0.0051508816
214	0x3b97540d	0.004618174
215	0x3ce9b3d1	0.028528126
216	0xbcfb6d0e	-0.03069165
217	0xbc8f86f3	-0.017520403
218	0x3ca519d8	0.020153925
219	0x3c230ab7	0.009951285
220	0xbb235b58	-0.0024926271
221	0xbcece7d6	-0.028919142
222	0xbc1f28f2	-0.009714352
223	0xbc93425e	-0.017975982
224	0x3cfc83be	0.030824538
225	0xbc3ae7d2	-0.011407809
226	0x3d0611f4	0.032731965
227	0x3cb153fc	0.021646492
228	0xbc3373eb	-0.01095293
229	0xbd0a1f74	-0.033721402
230	0x3c5965c8	0.013268895
231	0x3c2c8efd	0.010532138
232	0x3bb07fd7	0.0053863334
233	0x3cf6ba14	0.030118026
234	0xbc730405	-0.014832501
235	0xbcc84816	-0.024448436
236	0x3cb9a1de	0.022660192
237	0xbc90aa17	-0.01765923
238	0xbd020755	-0.031745274
239	0xbcf58d7c	-0.029974692
240	0x3c074000	0.008255005
241	0x3c45ac32	0.01206498
242	0x3c914289	0.017731922
243	0x3cf6d186	0.030129205
244	0x3b67090e	0.00352532
245	0x3cb62635	0.022235015
246	0x3c43a28e	0.0119406115
247	0x3c896065	0.016769597
248	0xba1af1a8	-0.00059106434
249	0x3d0c3c3c	0.03423713
250	0x3c81a5fa	0.015826214
251	0xbcf09398	-0.029367253
252	0xbcd18d97	-0.02558021
253	0xbc5159b7	-0.012777737
254	0x3cb777c9	0.022395985
255	0x3cb847a4	0.022495098

bias f4 [86]
0	0x3d0a1409	0.033710513
1	0x3caeb59d	0.021326834
2	0xbc7c7b01	-0.015410186
3	0xbc8c819d	-0.017151648
4	0xbb7a997b	-0.0038238454
5	0x3c8e6307	0.017381204
6	0x3c06135b	0.008183326
7	0x3b46002f	0.0030212512
8	0x3ab9cbcf	0.001417512
9	0x3ba3f2d4	0.0050033126
10	0xbc4bb48a	-0.012433181
11	0x3c3dec73	0.011592018
12	0x3cbcef54	0.02306334
13	0x3c03b23c	0.0080381
14	0xbcc1565c	-0.02360075
15	0xbba658fa	-0.005076525
16	0x3ce71122	0.028206412
17	0x3c2c9708	0.0105340555
18	0xbc6df1f7	-0.014523021
19	0x3bdcf7be	0.0067434004
20	0xbc47302c	-0.012157481
21	0x3b570a59	0.0032812564
22	0xbbb9060e	-0.0056464737
23	0x3c874fee	0.016517606
24	0xbcc85e04	-0.024458893
25	0xbc03d83d	-0.008047161
26	0xbd0c65a6	-0.034276627
27	0x3c9427a3	0.018085307
28	0xbc5afd98	-0.0133661255
29	0xbcb8dbc0	-0.022565722
30	0xbc555b96	-0.013022324
31	0x3939e158	0.00017726922
32	0xbce910ab	-0.02845033
33	0xbce4e091	-0.027939113
34	0x3bb61363	0.0055565103
35	0xbca987c8	-0.020694628
36	0xbb9b21ed	-0.004734269
37	0x3c090814	0.008363742
38	0xbc07dd27	-0.008292473
39	0xbd128d0e	-0.03577905
40	0x3c56f178	0.013119094
41	0xbc20c661	-0.009812922
42	0xbcd88a7c	-0.026433222
43	0xbc3639f1	-0.011122213
44	0x3c8bf74f	0.0170857
45	0x3c9f96c2	0.019481067
46	0xbc0e26b9	-0.008676224
47	0xb8c01f9d	-9.161162e-05
48	0xbd0db678	-0.034597844
49	0xbc5c1c67	-0.013434506
50	0xbc9a23f0	-0.018815964
51	0xbcf93829	-0.030422287
52	0x3c3aeea0	0.011409432
53	0xb991ebbe	-0.00027832197
54	0xbcfb614c	-0.030686043
55	0x3b855667	0.004069138
56	0xbcd75bee	-0.026288953
57	0x3c037b21	0.008024962
58	0xbd45028f	-0.048098143
59	0xbd3569b5	-0.044290263
60	0xbba0daac	-0.00490888
61	0xbc89df2f	-0.016830055
62	0xbcf65709	-0.030070798
63	0xbd4639a6	-0.04839482
64	0xb952c8fb	-0.00020102032
65	0xbb5882dc	-0.0033036983
66	0xbd24fe7f	-0.04028177
67	0xbd68f2ea	-0.056872286
68	0x3b80824c	0.0039217826
69	0xbd2bac58	-0.041912407
70	0xbd0fffb6	-0.035155974
71	0xbbdc846f	-0.0067296545
72	0xbcd181db	-0.025574615
73	0xbca06dcc	-0.019583605
74	0xbd56abae	-0.05240982
75	0xbd26a93f	-0.04068875
76	0xbd01eb6a	-0.03171865
77	0xbcb42420	-0.021989882
78	0xbd991f84	-0.07476714
79	0xbd023704	-0.03179075
80	0xbbe05b70	-0.0068468377
81	0xbd131164	-0.035905257
82	0xbd48de8f	-0.049040373
83	0xbcf3db48	-0.029767647
84	0xbd07dab6	-0.033167563
85	0xbdc4921c	-0.09598181
