Models/srl-pt_bertimbau-base/linear_layer.pt (torch_old, 265058 bytes, 2 tensors)

weight f4 [86, 768]
000000 44 bb c5 bc b4 b1 3c bd 6b 0a 0a bc ba c5 06 3d
       -0.024137147 -0.04606791 -0.008425335 0.03290341
000010 6c 10 06 3d f8 6a 19 3d 60 5a 58 3c 6e 9f c9 3b
       0.032730505 0.03745553 0.013205141 0.0061530387
000020 3b 01 21 bc 23 bf c6 3c 65 bf de 3b 71 d7 a6 bc
       -0.0098269535 0.024261063 0.0067977183 -0.020366402
000030 f9 19 df bc 30 2e 05 3d 1c 46 7e 3c c5 b5 11 3b
       -0.027234064 0.03251475 0.015519645 0.0022233587
000040 c6 02 04 3c d0 fb 25 3b 83 49 f3 bc 36 ed 24 bd
       0.008057302 0.0025327094 -0.029698139 -0.040265284
000050 03 66 aa 3c 22 cf 33 bd 73 be 2c bc ae 95 44 bd
       0.020800596 -0.04389871 -0.0105434535 -0.04799431
000060 ef ad 8a 3c fc ea a2 bb eb 3c c7 3b 07 a7 41 bd
       0.016928641 -0.00497186 0.00608026 -0.04727843
000070 43 37 f7 bc 24 e3 30 3d dc 98 07 3d de c9 fc bc
       -0.030177718 0.04318537 0.033104762 -0.030857977
000080 3a 91 aa bc cb c6 bc bc 59 b3 21 bc e7 a0 30 bd
       -0.020821203 -0.02304401 -0.00986942 -0.0431222
000090 61 58 a3 3c 2d 62 31 3d 71 13 cc 3c 71 b4 41 bd
       0.019939603 0.04330652 0.024911614 -0.047291223
0000a0 40 90 aa 3c 6a bb b3 bb a8 06 c4 bc 7f 93 2f bb
       0.020820737 -0.005484988 -0.023928955 -0.0026790795
0000b0 72 0a 15 3d 50 e7 c9 bc 7d 94 b1 3b d6 61 9a 3c
       0.036386915 -0.024646431 0.0054193125 0.01884548
0000c0 d3 1e 91 bc 4f 9b 09 bb 07 d7 14 bd 42 1a b6 bc
       -0.017714893 -0.0020997112 -0.03633788 -0.022229318
0000d0 ee 19 a5 bc 77 cd 07 bb bb 45 0e ba 88 5e 91 bc
       -0.020153966 -0.0020721832 -0.0005427261 -0.017745271
0000e0 e5 9b 05 3d a4 49 1c 3d 33 82 ff bb 41 57 16 3d
       0.032619376 0.038156167 -0.0077975034 0.036704306
0000f0 e6 b8 2c 3d b4 f9 2b bd da 15 4c 3d a5 9f cd 3c
       0.04216852 -0.041986182 0.049825527 0.025100539
000100 55 fc 9b bc c9 e3 0c 3d 0c 80 10 bc 94 aa ca bc
       -0.01904122 0.03439692 -0.008819591 -0.024739541
000110 4b f9 35 bd 2a cd 2f bc 0a f6 48 bd bd a0 71 bc
       -0.044427197 -0.010730067 -0.049062766 -0.014747796
000120 64 fa 33 3d 22 a8 24 3d be 80 1f 3d 92 1e cc 3c
       0.043939963 0.040199406 0.038941137 0.02491692
000130 30 36 1d 3d a0 65 49 bc 3e 80 15 bd 9d 03 42 3c
       0.038381755 -0.012292296 -0.036499254 0.011841682
000140 68 b2 33 bc 47 ed 9f 3c fb ef 1b 3d 57 5c 00 3d
       -0.010967828 0.019522322 0.03807066 0.031338062
000150 dd 0d 0c 3d b6 1f 93 3c 71 1c 47 bc c1 45 5e bc
       0.03419291 0.017959457 -0.012152777 -0.013566435
000160 e0 89 2a bd 56 0e 3e bd cf b2 e8 bc 65 3a 4f bd
       -0.041635394 -0.04640039 -0.028405575 -0.0505928
000170 dd 35 ca 3b 80 14 1e bd d1 fc 2a 3d 2f d6 17 bd
       0.006170972 -0.03859377 0.04174501 -0.037069496
000180 30 12 1f 3d c0 97 b9 bc 76 2a b7 3c a0 d8 a5 3c
       0.038835704 -0.022655368 0.022359114 0.020244896
000190 41 ab cf bb cf 4f 29 bc 57 d1 2e 3b a9 b2 01 3d
       -0.0063375537 -0.010333969 0.002667507 0.031664524
0001a0 cf 51 b4 3b 3e 52 28 3d b2 b8 a7 bb 6b d9 de 3c
       0.0055029164 0.041094057 -0.005118453 0.027203282
0001b0 ef 01 92 bc e7 e9 c6 bc fa d8 98 bc 4c a6 bd 3b
       -0.017823188 -0.024281455 -0.01865815 0.0057876464
0001c0 5e 0b 2d 3d 65 76 48 3d ba d2 c8 3a 50 e0 07 3c
       0.04224717 0.048941035 0.001532159 0.008293226
0001d0 98 b3 c6 3c a0 9b ea 3c 78 87 23 bd 86 76 11 bd
       0.024255559 0.02863866 -0.039924115 -0.035513423
0001e0 32 86 c6 3c 1e 09 83 bc 77 46 d6 3c a7 e6 12 3d
       0.024233911 -0.015995558 0.026156647 0.0358645
0001f0 a0 bd 28 bd d3 1a 29 bc 16 4f 2b 3c 3d be 29 3d
       -0.041196465 -0.010321337 0.010455867 0.04144119
000200 bb b9 71 3c 47 0a 0f 3d bb 1b ae bc b6 cc 18 3c
       0.014753754 0.03492191 -0.021253457 0.009326151
000210 18 8b d8 3c f8 cf e3 3c 5d 33 f6 3b 40 df 11 bd
       0.026433513 0.027809128 0.007513447 -0.0356133
000220 f5 93 07 bd bc c6 7e 3c ef bc fa 3c 43 77 89 bc
       -0.033100087 0.015550312 0.030607669 -0.016780501
000230 86 b6 4d 3d bd 9d 2c bd 22 3f 24 bd 83 ff 03 bc
       0.050222896 -0.04214262 -0.04009927 -0.008056524
000240 ee 7f 34 3d 90 c8 4c 3d ac 08 84 3c 49 9b d7 3c
       0.044067316 0.04999596 0.016117416 0.026319163
000250 74 1a 04 bc c3 36 78 bc 46 59 f0 bc ad 52 92 3c
       -0.008062948 -0.015149775 -0.029339444 0.017861689
000260 7e dd 7c ba 09 ed 35 bb dc f9 34 bd 31 90 97 3c
       -0.0009646042 -0.0027759692 -0.044183597 0.018501373
000270 70 9e bd bc 65 c0 ee 3c 8c ed b6 3c ad 65 c7 3b
       -0.023146838 0.029144475 0.022330068 0.0060851187
000280 a7 a3 d3 3c 4d e9 f4 3c 4b f0 62 bc 80 19 fd 3c
       0.025834871 0.029896403 -0.013851236 0.030895948
000290 11 5e 56 bc 02 06 1e ba df 1f 39 3d 4f 7b 4c bd
       -0.013083951 -0.0006028117 0.04519641 -0.049922284
0002a0 3d 7a eb 3c 28 2c 6a 3b e4 a7 35 3d 7d 71 ac 39
       0.028744811 0.0035731886 0.044349566 0.00032890952
0002b0 4f 48 d0 bb 83 76 64 bb 41 f4 1c bd 64 14 1e bd
       -0.006356276 -0.0034860678 -0.038318876 -0.038593665
0002c0 45 dd 1c 3b 29 7d 40 bd 06 4a 06 bd 2c be 86 3c
       0.0023935598 -0.046994362 -0.032785438 0.016448103
0002d0 83 23 00 bc 7a f4 cd 3c ca c9 cc bc fe 6a d9 bc
       -0.007820967 0.02514099 -0.024998564 -0.026540276
0002e0 db cd 30 bd 17 30 bb ba 79 7d 18 bd f6 34 3d bb
       -0.04316507 -0.00142813 -0.037229035 -0.0028870679
0002f0 97 26 0e 3c e5 d9 97 3c 5c a9 e1 3c 93 44 42 3d
       0.008676193 0.018536517 0.027546577 0.04742868
000300 8a 44 ab 3c 42 5e 27 bd 45 23 e0 3c 05 00 83 bc
       0.020906705 -0.040861376 0.027360568 -0.01599122
000310 ce ab 27 3d 3b 5e 6d bc 5e 07 32 bc ff 50 9b bc
       0.04093533 -0.014487798 -0.010866014 -0.01895952
000320 24 71 48 3d 13 78 de bc cd 20 31 3c 49 5c 33 bd
       0.048936024 -0.027156865 0.010811043 -0.04378918
000330 a5 c8 14 3c 6d 95 2e 3d 8c 61 55 3c ed 6a 2d 3d
       0.0090810405 0.042622972 0.013023745 0.0423383
000340 68 8a fe bc de fb 91 3c 0e f6 b2 bb 23 82 dc bc
       -0.031071857 0.017820295 -0.005461461 -0.026917523
000350 f6 c0 11 bd b8 1c 14 3c 80 aa db 3c 1d 17 a4 bc
       -0.035584413 0.00904005 0.0268147 -0.020030553
000360 5c 24 8c 3c a0 74 bb bc 6b 69 2b 3d f8 76 8d 3c
       0.017107181 -0.02288276 0.04184858 0.017268643
000370 9f d1 8d bc 27 52 df 3c 74 54 25 3d c1 15 bf 3c
       -0.01731187 0.027260853 0.040363744 0.023325803
000380 23 46 3f 3d 70 8a e6 bc 71 d7 8f bc a4 b7 29 3d
       0.046697747 -0.028142184 -0.017558785 0.0414349
000390 39 6a 98 bb 9b 54 48 bc a2 ed 32 bd c6 f5 5d 3b
       -0.0046513346 -0.012227203 -0.043683656 0.0033868416
0003a0 a9 18 4d bc af d5 f6 3c ef f8 c0 bc 5c b2 42 bc
       -0.0125180865 0.03013119 -0.0235562 -0.0118833445
0003b0 73 6f 20 bc 31 39 f1 bc 7a 20 29 bd d0 0f 1c 3d
       -0.009792197 -0.029446216 -0.041290738 0.038101017
0003c0 0c 5f 1d 3d e4 27 a1 3c 62 f2 32 bd 54 be f5 bc
       0.038420722 0.019672342 -0.043688186 -0.029997982
0003d0 89 4e cd 3b a6 58 ca 3c 23 fe a9 bc 59 82 96 3b
       0.0062654656 0.024700474 -0.020751065 0.0045931754
0003e0 49 da c7 bb b9 ab c8 3c 9a ce 86 3b f5 87 e5 bc
       -0.0060990197 0.024495946 0.0041139843 -0.02801893
0003f0 fc e5 77 3b f2 36 0b bd 3d fe 0d bd 6b 44 e1 bc
       0.003782629 -0.033987947 -0.03466629 -0.027498445

bias f4 [86]
000000 3f 5c 4f 3b a9 68 31 3b 03 50 f8 3b 89 95 dd bc
       0.0031640676 0.002707044 0.0075778975 -0.027048843
000010 b9 8a 1c bd a4 a9 a7 bc d0 e7 7a 3c 28 4f e2 bc
       -0.038218234 -0.020466633 0.0153140575 -0.027625635
000020 62 10 1d 3a ae 44 ca ba d2 de 19 bd fa 6e 14 ba
       0.0005991516 -0.0015431845 -0.037566014 -0.0005662289
000030 c2 33 8e 3c f3 e3 ff 3b dd 57 ee 3c c1 ca b2 bb
       0.017358664 0.007809156 0.02909463 -0.005456299
000040 6a 01 4c bc 91 7b 0b bd e4 f9 86 3b 51 8e c9 bc
       -0.012451509 -0.03405339 0.0041191448 -0.024603995
000050 e1 22 ff bc 69 a8 45 3c 9c 8b f6 3c 3f d3 90 bc
       -0.031144561 0.012064078 0.030095868 -0.017678855
000060 2c db fe 3c c9 fa 0c 3d 34 be 64 bd c9 4e e1 bc
       0.031110369 0.034418855 -0.055845454 -0.027503388
000070 3e 0a 0f 3b 93 71 e0 bc 06 6a 69 bc b9 6d b3 bc
       0.0021826173 -0.027397906 -0.014246469 -0.021902906
000080 fc dd d1 3c 62 61 a6 3c 3d a8 e9 bb 12 2e 3c bb
       0.025618546 0.020310108 -0.0071306513 -0.0028713983
000090 b5 b2 aa 3c a6 30 8d bb ac 18 36 bd c8 c4 2d 3b
       0.020837167 -0.004308778 -0.044457123 0.0026514996
0000a0 44 0d 21 bd 85 28 12 3c ce 37 3e 3c 40 65 4a bd
       -0.03931929 0.008920793 0.011609985 -0.049412966
0000b0 f8 79 17 bd 47 d3 22 3c c5 cd f4 3a 09 24 04 bd
       -0.036981553 0.009938068 0.0018677047 -0.03226093
0000c0 6e f5 47 bd e5 09 5b 3b 2b 2d 36 bc af 31 42 bd
       -0.048818044 0.0033422646 -0.011119167 -0.047410663
0000d0 88 36 ce bc a5 7a 29 bc 1e 99 6f bc ec 22 bf 38
       -0.025172487 -0.010344182 -0.014623908 9.1140944e-05
0000e0 5e 91 ab bb 45 1a 91 3c 3f fa 8d b9 00 92 5f bc
       -0.005235835 0.017712722 -0.00027080064 -0.013645649
0000f0 ff 26 d7 bc 7b 2b 14 bd 05 b9 5b bd 7d f6 04 bd
       -0.026263712 -0.03617428 -0.053643245 -0.032461632
000100 21 26 7a bc db 02 24 bd b1 5e 4d bc 89 40 0b bd
       -0.01526788 -0.040041786 -0.012534783 -0.033997092
000110 e7 d2 77 bd 44 7f 12 bd 66 fb fa bb f2 b0 8b bd
       -0.060503867 -0.0357659 -0.0076593636 -0.06820859
000120 ed bd 2d bd 1f 5d db bc d1 5c 64 bd 08 ff 93 bc
       -0.042417455 -0.026777802 -0.05575258 -0.018065944
000130 2e 52 96 bd 1d 03 86 bd e6 3d c9 bd 01 75 1b bd
       -0.07339893 -0.065435626 -0.09826259 -0.03795338
000140 f2 6a 12 bd d1 02 ac bd 5f e2 91 bd dd df 00 be
       -0.035746522 -0.08398975 -0.07123255 -0.12585397
000150 bf 89 d5 bd e2 5d 17 be
       -0.104266636 -0.14781907
